…
wandb: Run data is saved locally in /data/trf/python_works/BatteryMoE/wandb/run-20250315_203446-20r8vtz4
wandb: Run `wandb offline` to turn off syncing.
wandb: Syncing run 2025-03-15 20:34:35
wandb: â­ï¸ View project at https://wandb.ai/hkustgz-batteryinformatics/FoundationModel
wandb: ðŸš€ View run at https://wandb.ai/hkustgz-batteryinformatics/FoundationModel/runs/20r8vtz4
{'Total': 242213177, 'Trainable': 242213177, 'Percent': 1.0}
 Model(
  (flattenIntraCycleLayer): FlattenIntraCycleMoELayer(
    (experts): ModuleList(
      (0-9): 10 x Sequential(
        (0): Flatten(start_dim=2, end_dim=-1)
        (1): Linear(in_features=900, out_features=128, bias=True)
      )
    )
    (general_experts): ModuleList(
      (0): Sequential(
        (0): Flatten(start_dim=2, end_dim=-1)
        (1): Linear(in_features=900, out_features=128, bias=True)
      )
    )
    (gate): PatternRouterMLP(
      (distribution_fit): Sequential(
        (0): Linear(in_features=3072, out_features=1536, bias=True)
        (1): LeakyReLU(negative_slope=0.01)
        (2): Linear(in_features=1536, out_features=10, bias=True)
      )
    )
    (noise): PatternRouterMLP(
      (distribution_fit): Sequential(
        (0): Linear(in_features=3072, out_features=1536, bias=True)
        (1): LeakyReLU(negative_slope=0.01)
        (2): Linear(in_features=1536, out_features=10, bias=True)
      )
    )
    (softplus): Softplus(beta=1.0, threshold=20.0)
  )
  (intraCycleLayers): ModuleList(
    (0-9): 10 x IntraCycleMoELayer(
      (experts): ModuleList(
        (0-9): 10 x MLPBlock(
          (in_linear): Linear(in_features=128, out_features=256, bias=True)
          (dropout): Dropout(p=0.05, inplace=False)
          (act): ReLU()
          (out_linear): Linear(in_features=256, out_features=128, bias=True)
          (ln): LayerNorm((128,), eps=1e-05, elementwise_affine=True)
        )
      )
      (general_experts): ModuleList(
        (0): MLPBlock(
          (in_linear): Linear(in_features=128, out_features=256, bias=True)
          (dropout): Dropout(p=0.05, inplace=False)
          (act): ReLU()
          (out_linear): Linear(in_features=256, out_features=128, bias=True)
          (ln): LayerNorm((128,), eps=1e-05, elementwise_affine=True)
        )
      )
      (gate): PatternRouterMLP(
        (distribution_fit): Sequential(
          (0): Linear(in_features=3072, out_features=1536, bias=True)
          (1): LeakyReLU(negative_slope=0.01)
          (2): Linear(in_features=1536, out_features=10, bias=True)
        )
      )
      (noise): PatternRouterMLP(
        (distribution_fit): Sequential(
          (0): Linear(in_features=3072, out_features=1536, bias=True)
          (1): LeakyReLU(negative_slope=0.01)
          (2): Linear(in_features=1536, out_features=10, bias=True)
        )
      )
      (softplus): Softplus(beta=1.0, threshold=20.0)
    )
  )
  (flattenInterCycleLayer): FlattenInterCycleMoELayer(
    (experts): ModuleList(
      (0-9): 10 x Sequential(
        (0): Flatten(start_dim=1, end_dim=-1)
        (1): Linear(in_features=12800, out_features=128, bias=True)
      )
    )
    (general_experts): ModuleList(
      (0): Sequential(
        (0): Flatten(start_dim=1, end_dim=-1)
        (1): Linear(in_features=12800, out_features=128, bias=True)
      )
    )
    (gate): PatternRouterMLP(
      (distribution_fit): Sequential(
        (0): Linear(in_features=3072, out_features=1536, bias=True)
        (1): LeakyReLU(negative_slope=0.01)
        (2): Linear(in_features=1536, out_features=10, bias=True)
      )
    )
    (noise): PatternRouterMLP(
      (distribution_fit): Sequential(
        (0): Linear(in_features=3072, out_features=1536, bias=True)
        (1): LeakyReLU(negative_slope=0.01)
        (2): Linear(in_features=1536, out_features=10, bias=True)
      )
    )
    (softplus): Softplus(beta=1.0, threshold=20.0)
  )
  (interCycleLayers): ModuleList(
    (0-9): 10 x InterCycleMoELayer(
      (experts): ModuleList(
        (0-9): 10 x MLPBlock(
          (in_linear): Linear(in_features=128, out_features=256, bias=True)
          (dropout): Dropout(p=0.05, inplace=False)
          (act): ReLU()
          (out_linear): Linear(in_features=256, out_features=128, bias=True)
          (ln): LayerNorm((128,), eps=1e-05, elementwise_affine=True)
        )
      )
      (general_experts): ModuleList(
        (0): MLPBlock(
          (in_linear): Linear(in_features=128, out_features=256, bias=True)
          (dropout): Dropout(p=0.05, inplace=False)
          (act): ReLU()
          (out_linear): Linear(in_features=256, out_features=128, bias=True)
          (ln): LayerNorm((128,), eps=1e-05, elementwise_affine=True)
        )
      )
      (gate): PatternRouterMLP(
        (distribution_fit): Sequential(
          (0): Linear(in_features=3072, out_features=1536, bias=True)
          (1): LeakyReLU(negative_slope=0.01)
          (2): Linear(in_features=1536, out_features=10, bias=True)
        )
      )
      (noise): PatternRouterMLP(
        (distribution_fit): Sequential(
          (0): Linear(in_features=3072, out_features=1536, bias=True)
          (1): LeakyReLU(negative_slope=0.01)
          (2): Linear(in_features=1536, out_features=10, bias=True)
        )
      )
      (softplus): Softplus(beta=1.0, threshold=20.0)
    )
  )
  (regression_head): OutputHead(
    (projection): Sequential(
      (0): Linear(in_features=128, out_features=1, bias=True)
    )
  )
)
flattenIntraCycleLayer FlattenIntraCycleMoELayer(
  (experts): ModuleList(
    (0-9): 10 x Sequential(
      (0): Flatten(start_dim=2, end_dim=-1)
      (1): Linear(in_features=900, out_features=128, bias=True)
    )
  )
  (general_experts): ModuleList(
    (0): Sequential(
      (0): Flatten(start_dim=2, end_dim=-1)
      (1): Linear(in_features=900, out_features=128, bias=True)
    )
  )
  (gate): PatternRouterMLP(
    (distribution_fit): Sequential(
      (0): Linear(in_features=3072, out_features=1536, bias=True)
      (1): LeakyReLU(negative_slope=0.01)
      (2): Linear(in_features=1536, out_features=10, bias=True)
    )
  )
  (noise): PatternRouterMLP(
    (distribution_fit): Sequential(
      (0): Linear(in_features=3072, out_features=1536, bias=True)
      (1): LeakyReLU(negative_slope=0.01)
      (2): Linear(in_features=1536, out_features=10, bias=True)
    )
  )
  (softplus): Softplus(beta=1.0, threshold=20.0)
)
flattenIntraCycleLayer.experts ModuleList(
  (0-9): 10 x Sequential(
    (0): Flatten(start_dim=2, end_dim=-1)
    (1): Linear(in_features=900, out_features=128, bias=True)
  )
)
flattenIntraCycleLayer.experts.0 Sequential(
  (0): Flatten(start_dim=2, end_dim=-1)
  (1): Linear(in_features=900, out_features=128, bias=True)
)
flattenIntraCycleLayer.experts.0.0 Flatten(start_dim=2, end_dim=-1)
flattenIntraCycleLayer.experts.0.1 Linear(in_features=900, out_features=128, bias=True)
flattenIntraCycleLayer.experts.1 Sequential(
  (0): Flatten(start_dim=2, end_dim=-1)
  (1): Linear(in_features=900, out_features=128, bias=True)
)
flattenIntraCycleLayer.experts.1.0 Flatten(start_dim=2, end_dim=-1)
flattenIntraCycleLayer.experts.1.1 Linear(in_features=900, out_features=128, bias=True)
flattenIntraCycleLayer.experts.2 Sequential(
  (0): Flatten(start_dim=2, end_dim=-1)
  (1): Linear(in_features=900, out_features=128, bias=True)
)
flattenIntraCycleLayer.experts.2.0 Flatten(start_dim=2, end_dim=-1)
flattenIntraCycleLayer.experts.2.1 Linear(in_features=900, out_features=128, bias=True)
flattenIntraCycleLayer.experts.3 Sequential(
  (0): Flatten(start_dim=2, end_dim=-1)
  (1): Linear(in_features=900, out_features=128, bias=True)
)
flattenIntraCycleLayer.experts.3.0 Flatten(start_dim=2, end_dim=-1)
flattenIntraCycleLayer.experts.3.1 Linear(in_features=900, out_features=128, bias=True)
flattenIntraCycleLayer.experts.4 Sequential(
  (0): Flatten(start_dim=2, end_dim=-1)
  (1): Linear(in_features=900, out_features=128, bias=True)
)
flattenIntraCycleLayer.experts.4.0 Flatten(start_dim=2, end_dim=-1)
flattenIntraCycleLayer.experts.4.1 Linear(in_features=900, out_features=128, bias=True)
flattenIntraCycleLayer.experts.5 Sequential(
  (0): Flatten(start_dim=2, end_dim=-1)
  (1): Linear(in_features=900, out_features=128, bias=True)
)
flattenIntraCycleLayer.experts.5.0 Flatten(start_dim=2, end_dim=-1)
flattenIntraCycleLayer.experts.5.1 Linear(in_features=900, out_features=128, bias=True)
flattenIntraCycleLayer.experts.6 Sequential(
  (0): Flatten(start_dim=2, end_dim=-1)
  (1): Linear(in_features=900, out_features=128, bias=True)
)
flattenIntraCycleLayer.experts.6.0 Flatten(start_dim=2, end_dim=-1)
flattenIntraCycleLayer.experts.6.1 Linear(in_features=900, out_features=128, bias=True)
flattenIntraCycleLayer.experts.7 Sequential(
  (0): Flatten(start_dim=2, end_dim=-1)
  (1): Linear(in_features=900, out_features=128, bias=True)
)
flattenIntraCycleLayer.experts.7.0 Flatten(start_dim=2, end_dim=-1)
flattenIntraCycleLayer.experts.7.1 Linear(in_features=900, out_features=128, bias=True)
flattenIntraCycleLayer.experts.8 Sequential(
  (0): Flatten(start_dim=2, end_dim=-1)
  (1): Linear(in_features=900, out_features=128, bias=True)
)
flattenIntraCycleLayer.experts.8.0 Flatten(start_dim=2, end_dim=-1)
flattenIntraCycleLayer.experts.8.1 Linear(in_features=900, out_features=128, bias=True)
flattenIntraCycleLayer.experts.9 Sequential(
  (0): Flatten(start_dim=2, end_dim=-1)
  (1): Linear(in_features=900, out_features=128, bias=True)
)
flattenIntraCycleLayer.experts.9.0 Flatten(start_dim=2, end_dim=-1)
flattenIntraCycleLayer.experts.9.1 Linear(in_features=900, out_features=128, bias=True)
flattenIntraCycleLayer.general_experts ModuleList(
  (0): Sequential(
    (0): Flatten(start_dim=2, end_dim=-1)
    (1): Linear(in_features=900, out_features=128, bias=True)
  )
)
flattenIntraCycleLayer.general_experts.0 Sequential(
  (0): Flatten(start_dim=2, end_dim=-1)
  (1): Linear(in_features=900, out_features=128, bias=True)
)
flattenIntraCycleLayer.general_experts.0.0 Flatten(start_dim=2, end_dim=-1)
flattenIntraCycleLayer.general_experts.0.1 Linear(in_features=900, out_features=128, bias=True)
flattenIntraCycleLayer.gate PatternRouterMLP(
  (distribution_fit): Sequential(
    (0): Linear(in_features=3072, out_features=1536, bias=True)
    (1): LeakyReLU(negative_slope=0.01)
    (2): Linear(in_features=1536, out_features=10, bias=True)
  )
)
flattenIntraCycleLayer.gate.distribution_fit Sequential(
  (0): Linear(in_features=3072, out_features=1536, bias=True)
  (1): LeakyReLU(negative_slope=0.01)
  (2): Linear(in_features=1536, out_features=10, bias=True)
)
flattenIntraCycleLayer.gate.distribution_fit.0 Linear(in_features=3072, out_features=1536, bias=True)
flattenIntraCycleLayer.gate.distribution_fit.1 LeakyReLU(negative_slope=0.01)
flattenIntraCycleLayer.gate.distribution_fit.2 Linear(in_features=1536, out_features=10, bias=True)
flattenIntraCycleLayer.noise PatternRouterMLP(
  (distribution_fit): Sequential(
    (0): Linear(in_features=3072, out_features=1536, bias=True)
    (1): LeakyReLU(negative_slope=0.01)
    (2): Linear(in_features=1536, out_features=10, bias=True)
  )
)
flattenIntraCycleLayer.noise.distribution_fit Sequential(
  (0): Linear(in_features=3072, out_features=1536, bias=True)
  (1): LeakyReLU(negative_slope=0.01)
  (2): Linear(in_features=1536, out_features=10, bias=True)
)
flattenIntraCycleLayer.noise.distribution_fit.0 Linear(in_features=3072, out_features=1536, bias=True)
flattenIntraCycleLayer.noise.distribution_fit.1 LeakyReLU(negative_slope=0.01)
flattenIntraCycleLayer.noise.distribution_fit.2 Linear(in_features=1536, out_features=10, bias=True)
flattenIntraCycleLayer.softplus Softplus(beta=1.0, threshold=20.0)
intraCycleLayers ModuleList(
  (0-9): 10 x IntraCycleMoELayer(
    (experts): ModuleList(
      (0-9): 10 x MLPBlock(
        (in_linear): Linear(in_features=128, out_features=256, bias=True)
        (dropout): Dropout(p=0.05, inplace=False)
        (act): ReLU()
        (out_linear): Linear(in_features=256, out_features=128, bias=True)
        (ln): LayerNorm((128,), eps=1e-05, elementwise_affine=True)
      )
    )
    (general_experts): ModuleList(
      (0): MLPBlock(
        (in_linear): Linear(in_features=128, out_features=256, bias=True)
        (dropout): Dropout(p=0.05, inplace=False)
        (act): ReLU()
        (out_linear): Linear(in_features=256, out_features=128, bias=True)
        (ln): LayerNorm((128,), eps=1e-05, elementwise_affine=True)
      )
    )
    (gate): PatternRouterMLP(
      (distribution_fit): Sequential(
        (0): Linear(in_features=3072, out_features=1536, bias=True)
        (1): LeakyReLU(negative_slope=0.01)
        (2): Linear(in_features=1536, out_features=10, bias=True)
      )
    )
    (noise): PatternRouterMLP(
      (distribution_fit): Sequential(
        (0): Linear(in_features=3072, out_features=1536, bias=True)
        (1): LeakyReLU(negative_slope=0.01)
        (2): Linear(in_features=1536, out_features=10, bias=True)
      )
    )
    (softplus): Softplus(beta=1.0, threshold=20.0)
  )
)
intraCycleLayers.0 IntraCycleMoELayer(
  (experts): ModuleList(
    (0-9): 10 x MLPBlock(
      (in_linear): Linear(in_features=128, out_features=256, bias=True)
      (dropout): Dropout(p=0.05, inplace=False)
      (act): ReLU()
      (out_linear): Linear(in_features=256, out_features=128, bias=True)
      (ln): LayerNorm((128,), eps=1e-05, elementwise_affine=True)
    )
  )
  (general_experts): ModuleList(
    (0): MLPBlock(
      (in_linear): Linear(in_features=128, out_features=256, bias=True)
      (dropout): Dropout(p=0.05, inplace=False)
      (act): ReLU()
      (out_linear): Linear(in_features=256, out_features=128, bias=True)
      (ln): LayerNorm((128,), eps=1e-05, elementwise_affine=True)
    )
  )
  (gate): PatternRouterMLP(
    (distribution_fit): Sequential(
      (0): Linear(in_features=3072, out_features=1536, bias=True)
      (1): LeakyReLU(negative_slope=0.01)
      (2): Linear(in_features=1536, out_features=10, bias=True)
    )
  )
  (noise): PatternRouterMLP(
    (distribution_fit): Sequential(
      (0): Linear(in_features=3072, out_features=1536, bias=True)
      (1): LeakyReLU(negative_slope=0.01)
      (2): Linear(in_features=1536, out_features=10, bias=True)
    )
  )
  (softplus): Softplus(beta=1.0, threshold=20.0)
)
intraCycleLayers.0.experts ModuleList(
  (0-9): 10 x MLPBlock(
    (in_linear): Linear(in_features=128, out_features=256, bias=True)
    (dropout): Dropout(p=0.05, inplace=False)
    (act): ReLU()
    (out_linear): Linear(in_features=256, out_features=128, bias=True)
    (ln): LayerNorm((128,), eps=1e-05, elementwise_affine=True)
  )
)
intraCycleLayers.0.experts.0 MLPBlock(
  (in_linear): Linear(in_features=128, out_features=256, bias=True)
  (dropout): Dropout(p=0.05, inplace=False)
  (act): ReLU()
  (out_linear): Linear(in_features=256, out_features=128, bias=True)
  (ln): LayerNorm((128,), eps=1e-05, elementwise_affine=True)
)
intraCycleLayers.0.experts.0.in_linear Linear(in_features=128, out_features=256, bias=True)
intraCycleLayers.0.experts.0.dropout Dropout(p=0.05, inplace=False)
intraCycleLayers.0.experts.0.act ReLU()
intraCycleLayers.0.experts.0.out_linear Linear(in_features=256, out_features=128, bias=True)
intraCycleLayers.0.experts.0.ln LayerNorm((128,), eps=1e-05, elementwise_affine=True)
intraCycleLayers.0.experts.1 MLPBlock(
  (in_linear): Linear(in_features=128, out_features=256, bias=True)
  (dropout): Dropout(p=0.05, inplace=False)
  (act): ReLU()
  (out_linear): Linear(in_features=256, out_features=128, bias=True)
  (ln): LayerNorm((128,), eps=1e-05, elementwise_affine=True)
)
intraCycleLayers.0.experts.1.in_linear Linear(in_features=128, out_features=256, bias=True)
intraCycleLayers.0.experts.1.dropout Dropout(p=0.05, inplace=False)
intraCycleLayers.0.experts.1.act ReLU()
intraCycleLayers.0.experts.1.out_linear Linear(in_features=256, out_features=128, bias=True)
intraCycleLayers.0.experts.1.ln LayerNorm((128,), eps=1e-05, elementwise_affine=True)
intraCycleLayers.0.experts.2 MLPBlock(
  (in_linear): Linear(in_features=128, out_features=256, bias=True)
  (dropout): Dropout(p=0.05, inplace=False)
  (act): ReLU()
  (out_linear): Linear(in_features=256, out_features=128, bias=True)
  (ln): LayerNorm((128,), eps=1e-05, elementwise_affine=True)
)
intraCycleLayers.0.experts.2.in_linear Linear(in_features=128, out_features=256, bias=True)
intraCycleLayers.0.experts.2.dropout Dropout(p=0.05, inplace=False)
intraCycleLayers.0.experts.2.act ReLU()
intraCycleLayers.0.experts.2.out_linear Linear(in_features=256, out_features=128, bias=True)
intraCycleLayers.0.experts.2.ln LayerNorm((128,), eps=1e-05, elementwise_affine=True)
intraCycleLayers.0.experts.3 MLPBlock(
  (in_linear): Linear(in_features=128, out_features=256, bias=True)
  (dropout): Dropout(p=0.05, inplace=False)
  (act): ReLU()
  (out_linear): Linear(in_features=256, out_features=128, bias=True)
  (ln): LayerNorm((128,), eps=1e-05, elementwise_affine=True)
)
intraCycleLayers.0.experts.3.in_linear Linear(in_features=128, out_features=256, bias=True)
intraCycleLayers.0.experts.3.dropout Dropout(p=0.05, inplace=False)
intraCycleLayers.0.experts.3.act ReLU()
intraCycleLayers.0.experts.3.out_linear Linear(in_features=256, out_features=128, bias=True)
intraCycleLayers.0.experts.3.ln LayerNorm((128,), eps=1e-05, elementwise_affine=True)
intraCycleLayers.0.experts.4 MLPBlock(
  (in_linear): Linear(in_features=128, out_features=256, bias=True)
  (dropout): Dropout(p=0.05, inplace=False)
  (act): ReLU()
  (out_linear): Linear(in_features=256, out_features=128, bias=True)
  (ln): LayerNorm((128,), eps=1e-05, elementwise_affine=True)
)
intraCycleLayers.0.experts.4.in_linear Linear(in_features=128, out_features=256, bias=True)
intraCycleLayers.0.experts.4.dropout Dropout(p=0.05, inplace=False)
intraCycleLayers.0.experts.4.act ReLU()
intraCycleLayers.0.experts.4.out_linear Linear(in_features=256, out_features=128, bias=True)
intraCycleLayers.0.experts.4.ln LayerNorm((128,), eps=1e-05, elementwise_affine=True)
intraCycleLayers.0.experts.5 MLPBlock(
  (in_linear): Linear(in_features=128, out_features=256, bias=True)
  (dropout): Dropout(p=0.05, inplace=False)
  (act): ReLU()
  (out_linear): Linear(in_features=256, out_features=128, bias=True)
  (ln): LayerNorm((128,), eps=1e-05, elementwise_affine=True)
)
intraCycleLayers.0.experts.5.in_linear Linear(in_features=128, out_features=256, bias=True)
intraCycleLayers.0.experts.5.dropout Dropout(p=0.05, inplace=False)
intraCycleLayers.0.experts.5.act ReLU()
intraCycleLayers.0.experts.5.out_linear Linear(in_features=256, out_features=128, bias=True)
intraCycleLayers.0.experts.5.ln LayerNorm((128,), eps=1e-05, elementwise_affine=True)
intraCycleLayers.0.experts.6 MLPBlock(
  (in_linear): Linear(in_features=128, out_features=256, bias=True)
  (dropout): Dropout(p=0.05, inplace=False)
  (act): ReLU()
  (out_linear): Linear(in_features=256, out_features=128, bias=True)
  (ln): LayerNorm((128,), eps=1e-05, elementwise_affine=True)
)
intraCycleLayers.0.experts.6.in_linear Linear(in_features=128, out_features=256, bias=True)
intraCycleLayers.0.experts.6.dropout Dropout(p=0.05, inplace=False)
intraCycleLayers.0.experts.6.act ReLU()
intraCycleLayers.0.experts.6.out_linear Linear(in_features=256, out_features=128, bias=True)
intraCycleLayers.0.experts.6.ln LayerNorm((128,), eps=1e-05, elementwise_affine=True)
intraCycleLayers.0.experts.7 MLPBlock(
  (in_linear): Linear(in_features=128, out_features=256, bias=True)
  (dropout): Dropout(p=0.05, inplace=False)
  (act): ReLU()
  (out_linear): Linear(in_features=256, out_features=128, bias=True)
  (ln): LayerNorm((128,), eps=1e-05, elementwise_affine=True)
)
intraCycleLayers.0.experts.7.in_linear Linear(in_features=128, out_features=256, bias=True)
intraCycleLayers.0.experts.7.dropout Dropout(p=0.05, inplace=False)
intraCycleLayers.0.experts.7.act ReLU()
intraCycleLayers.0.experts.7.out_linear Linear(in_features=256, out_features=128, bias=True)
intraCycleLayers.0.experts.7.ln LayerNorm((128,), eps=1e-05, elementwise_affine=True)
intraCycleLayers.0.experts.8 MLPBlock(
  (in_linear): Linear(in_features=128, out_features=256, bias=True)
  (dropout): Dropout(p=0.05, inplace=False)
  (act): ReLU()
  (out_linear): Linear(in_features=256, out_features=128, bias=True)
  (ln): LayerNorm((128,), eps=1e-05, elementwise_affine=True)
)
intraCycleLayers.0.experts.8.in_linear Linear(in_features=128, out_features=256, bias=True)
intraCycleLayers.0.experts.8.dropout Dropout(p=0.05, inplace=False)
intraCycleLayers.0.experts.8.act ReLU()
intraCycleLayers.0.experts.8.out_linear Linear(in_features=256, out_features=128, bias=True)
intraCycleLayers.0.experts.8.ln LayerNorm((128,), eps=1e-05, elementwise_affine=True)
intraCycleLayers.0.experts.9 MLPBlock(
  (in_linear): Linear(in_features=128, out_features=256, bias=True)
  (dropout): Dropout(p=0.05, inplace=False)
  (act): ReLU()
  (out_linear): Linear(in_features=256, out_features=128, bias=True)
  (ln): LayerNorm((128,), eps=1e-05, elementwise_affine=True)
)
intraCycleLayers.0.experts.9.in_linear Linear(in_features=128, out_features=256, bias=True)
intraCycleLayers.0.experts.9.dropout Dropout(p=0.05, inplace=False)
intraCycleLayers.0.experts.9.act ReLU()
intraCycleLayers.0.experts.9.out_linear Linear(in_features=256, out_features=128, bias=True)
intraCycleLayers.0.experts.9.ln LayerNorm((128,), eps=1e-05, elementwise_affine=True)
intraCycleLayers.0.general_experts ModuleList(
  (0): MLPBlock(
    (in_linear): Linear(in_features=128, out_features=256, bias=True)
    (dropout): Dropout(p=0.05, inplace=False)
    (act): ReLU()
    (out_linear): Linear(in_features=256, out_features=128, bias=True)
    (ln): LayerNorm((128,), eps=1e-05, elementwise_affine=True)
  )
)
intraCycleLayers.0.general_experts.0 MLPBlock(
  (in_linear): Linear(in_features=128, out_features=256, bias=True)
  (dropout): Dropout(p=0.05, inplace=False)
  (act): ReLU()
  (out_linear): Linear(in_features=256, out_features=128, bias=True)
  (ln): LayerNorm((128,), eps=1e-05, elementwise_affine=True)
)
intraCycleLayers.0.general_experts.0.in_linear Linear(in_features=128, out_features=256, bias=True)
intraCycleLayers.0.general_experts.0.dropout Dropout(p=0.05, inplace=False)
intraCycleLayers.0.general_experts.0.act ReLU()
intraCycleLayers.0.general_experts.0.out_linear Linear(in_features=256, out_features=128, bias=True)
intraCycleLayers.0.general_experts.0.ln LayerNorm((128,), eps=1e-05, elementwise_affine=True)
intraCycleLayers.0.gate PatternRouterMLP(
  (distribution_fit): Sequential(
    (0): Linear(in_features=3072, out_features=1536, bias=True)
    (1): LeakyReLU(negative_slope=0.01)
    (2): Linear(in_features=1536, out_features=10, bias=True)
  )
)
intraCycleLayers.0.gate.distribution_fit Sequential(
  (0): Linear(in_features=3072, out_features=1536, bias=True)
  (1): LeakyReLU(negative_slope=0.01)
  (2): Linear(in_features=1536, out_features=10, bias=True)
)
intraCycleLayers.0.gate.distribution_fit.0 Linear(in_features=3072, out_features=1536, bias=True)
intraCycleLayers.0.gate.distribution_fit.1 LeakyReLU(negative_slope=0.01)
intraCycleLayers.0.gate.distribution_fit.2 Linear(in_features=1536, out_features=10, bias=True)
intraCycleLayers.0.noise PatternRouterMLP(
  (distribution_fit): Sequential(
    (0): Linear(in_features=3072, out_features=1536, bias=True)
    (1): LeakyReLU(negative_slope=0.01)
    (2): Linear(in_features=1536, out_features=10, bias=True)
  )
)
intraCycleLayers.0.noise.distribution_fit Sequential(
  (0): Linear(in_features=3072, out_features=1536, bias=True)
  (1): LeakyReLU(negative_slope=0.01)
  (2): Linear(in_features=1536, out_features=10, bias=True)
)
intraCycleLayers.0.noise.distribution_fit.0 Linear(in_features=3072, out_features=1536, bias=True)
intraCycleLayers.0.noise.distribution_fit.1 LeakyReLU(negative_slope=0.01)
intraCycleLayers.0.noise.distribution_fit.2 Linear(in_features=1536, out_features=10, bias=True)
intraCycleLayers.0.softplus Softplus(beta=1.0, threshold=20.0)
intraCycleLayers.1 IntraCycleMoELayer(
  (experts): ModuleList(
    (0-9): 10 x MLPBlock(
      (in_linear): Linear(in_features=128, out_features=256, bias=True)
      (dropout): Dropout(p=0.05, inplace=False)
      (act): ReLU()
      (out_linear): Linear(in_features=256, out_features=128, bias=True)
      (ln): LayerNorm((128,), eps=1e-05, elementwise_affine=True)
    )
  )
  (general_experts): ModuleList(
    (0): MLPBlock(
      (in_linear): Linear(in_features=128, out_features=256, bias=True)
      (dropout): Dropout(p=0.05, inplace=False)
      (act): ReLU()
      (out_linear): Linear(in_features=256, out_features=128, bias=True)
      (ln): LayerNorm((128,), eps=1e-05, elementwise_affine=True)
    )
  )
  (gate): PatternRouterMLP(
    (distribution_fit): Sequential(
      (0): Linear(in_features=3072, out_features=1536, bias=True)
      (1): LeakyReLU(negative_slope=0.01)
      (2): Linear(in_features=1536, out_features=10, bias=True)
    )
  )
  (noise): PatternRouterMLP(
    (distribution_fit): Sequential(
      (0): Linear(in_features=3072, out_features=1536, bias=True)
      (1): LeakyReLU(negative_slope=0.01)
      (2): Linear(in_features=1536, out_features=10, bias=True)
    )
  )
  (softplus): Softplus(beta=1.0, threshold=20.0)
)
intraCycleLayers.1.experts ModuleList(
  (0-9): 10 x MLPBlock(
    (in_linear): Linear(in_features=128, out_features=256, bias=True)
    (dropout): Dropout(p=0.05, inplace=False)
    (act): ReLU()
    (out_linear): Linear(in_features=256, out_features=128, bias=True)
    (ln): LayerNorm((128,), eps=1e-05, elementwise_affine=True)
  )
)
intraCycleLayers.1.experts.0 MLPBlock(
  (in_linear): Linear(in_features=128, out_features=256, bias=True)
  (dropout): Dropout(p=0.05, inplace=False)
  (act): ReLU()
  (out_linear): Linear(in_features=256, out_features=128, bias=True)
  (ln): LayerNorm((128,), eps=1e-05, elementwise_affine=True)
)
intraCycleLayers.1.experts.0.in_linear Linear(in_features=128, out_features=256, bias=True)
intraCycleLayers.1.experts.0.dropout Dropout(p=0.05, inplace=False)
intraCycleLayers.1.experts.0.act ReLU()
intraCycleLayers.1.experts.0.out_linear Linear(in_features=256, out_features=128, bias=True)
intraCycleLayers.1.experts.0.ln LayerNorm((128,), eps=1e-05, elementwise_affine=True)
intraCycleLayers.1.experts.1 MLPBlock(
  (in_linear): Linear(in_features=128, out_features=256, bias=True)
  (dropout): Dropout(p=0.05, inplace=False)
  (act): ReLU()
  (out_linear): Linear(in_features=256, out_features=128, bias=True)
  (ln): LayerNorm((128,), eps=1e-05, elementwise_affine=True)
)
intraCycleLayers.1.experts.1.in_linear Linear(in_features=128, out_features=256, bias=True)
intraCycleLayers.1.experts.1.dropout Dropout(p=0.05, inplace=False)
intraCycleLayers.1.experts.1.act ReLU()
intraCycleLayers.1.experts.1.out_linear Linear(in_features=256, out_features=128, bias=True)
intraCycleLayers.1.experts.1.ln LayerNorm((128,), eps=1e-05, elementwise_affine=True)
intraCycleLayers.1.experts.2 MLPBlock(
  (in_linear): Linear(in_features=128, out_features=256, bias=True)
  (dropout): Dropout(p=0.05, inplace=False)
  (act): ReLU()
  (out_linear): Linear(in_features=256, out_features=128, bias=True)
  (ln): LayerNorm((128,), eps=1e-05, elementwise_affine=True)
)
intraCycleLayers.1.experts.2.in_linear Linear(in_features=128, out_features=256, bias=True)
intraCycleLayers.1.experts.2.dropout Dropout(p=0.05, inplace=False)
intraCycleLayers.1.experts.2.act ReLU()
intraCycleLayers.1.experts.2.out_linear Linear(in_features=256, out_features=128, bias=True)
intraCycleLayers.1.experts.2.ln LayerNorm((128,), eps=1e-05, elementwise_affine=True)
intraCycleLayers.1.experts.3 MLPBlock(
  (in_linear): Linear(in_features=128, out_features=256, bias=True)
  (dropout): Dropout(p=0.05, inplace=False)
  (act): ReLU()
  (out_linear): Linear(in_features=256, out_features=128, bias=True)
  (ln): LayerNorm((128,), eps=1e-05, elementwise_affine=True)
)
intraCycleLayers.1.experts.3.in_linear Linear(in_features=128, out_features=256, bias=True)
intraCycleLayers.1.experts.3.dropout Dropout(p=0.05, inplace=False)
intraCycleLayers.1.experts.3.act ReLU()
intraCycleLayers.1.experts.3.out_linear Linear(in_features=256, out_features=128, bias=True)
intraCycleLayers.1.experts.3.ln LayerNorm((128,), eps=1e-05, elementwise_affine=True)
intraCycleLayers.1.experts.4 MLPBlock(
  (in_linear): Linear(in_features=128, out_features=256, bias=True)
  (dropout): Dropout(p=0.05, inplace=False)
  (act): ReLU()
  (out_linear): Linear(in_features=256, out_features=128, bias=True)
  (ln): LayerNorm((128,), eps=1e-05, elementwise_affine=True)
)
intraCycleLayers.1.experts.4.in_linear Linear(in_features=128, out_features=256, bias=True)
intraCycleLayers.1.experts.4.dropout Dropout(p=0.05, inplace=False)
intraCycleLayers.1.experts.4.act ReLU()
intraCycleLayers.1.experts.4.out_linear Linear(in_features=256, out_features=128, bias=True)
intraCycleLayers.1.experts.4.ln LayerNorm((128,), eps=1e-05, elementwise_affine=True)
intraCycleLayers.1.experts.5 MLPBlock(
  (in_linear): Linear(in_features=128, out_features=256, bias=True)
  (dropout): Dropout(p=0.05, inplace=False)
  (act): ReLU()
  (out_linear): Linear(in_features=256, out_features=128, bias=True)
  (ln): LayerNorm((128,), eps=1e-05, elementwise_affine=True)
)
intraCycleLayers.1.experts.5.in_linear Linear(in_features=128, out_features=256, bias=True)
intraCycleLayers.1.experts.5.dropout Dropout(p=0.05, inplace=False)
intraCycleLayers.1.experts.5.act ReLU()
intraCycleLayers.1.experts.5.out_linear Linear(in_features=256, out_features=128, bias=True)
intraCycleLayers.1.experts.5.ln LayerNorm((128,), eps=1e-05, elementwise_affine=True)
intraCycleLayers.1.experts.6 MLPBlock(
  (in_linear): Linear(in_features=128, out_features=256, bias=True)
  (dropout): Dropout(p=0.05, inplace=False)
  (act): ReLU()
  (out_linear): Linear(in_features=256, out_features=128, bias=True)
  (ln): LayerNorm((128,), eps=1e-05, elementwise_affine=True)
)
intraCycleLayers.1.experts.6.in_linear Linear(in_features=128, out_features=256, bias=True)
intraCycleLayers.1.experts.6.dropout Dropout(p=0.05, inplace=False)
intraCycleLayers.1.experts.6.act ReLU()
intraCycleLayers.1.experts.6.out_linear Linear(in_features=256, out_features=128, bias=True)
intraCycleLayers.1.experts.6.ln LayerNorm((128,), eps=1e-05, elementwise_affine=True)
intraCycleLayers.1.experts.7 MLPBlock(
  (in_linear): Linear(in_features=128, out_features=256, bias=True)
  (dropout): Dropout(p=0.05, inplace=False)
  (act): ReLU()
  (out_linear): Linear(in_features=256, out_features=128, bias=True)
  (ln): LayerNorm((128,), eps=1e-05, elementwise_affine=True)
)
intraCycleLayers.1.experts.7.in_linear Linear(in_features=128, out_features=256, bias=True)
intraCycleLayers.1.experts.7.dropout Dropout(p=0.05, inplace=False)
intraCycleLayers.1.experts.7.act ReLU()
intraCycleLayers.1.experts.7.out_linear Linear(in_features=256, out_features=128, bias=True)
intraCycleLayers.1.experts.7.ln LayerNorm((128,), eps=1e-05, elementwise_affine=True)
intraCycleLayers.1.experts.8 MLPBlock(
  (in_linear): Linear(in_features=128, out_features=256, bias=True)
  (dropout): Dropout(p=0.05, inplace=False)
  (act): ReLU()
  (out_linear): Linear(in_features=256, out_features=128, bias=True)
  (ln): LayerNorm((128,), eps=1e-05, elementwise_affine=True)
)
intraCycleLayers.1.experts.8.in_linear Linear(in_features=128, out_features=256, bias=True)
intraCycleLayers.1.experts.8.dropout Dropout(p=0.05, inplace=False)
intraCycleLayers.1.experts.8.act ReLU()
intraCycleLayers.1.experts.8.out_linear Linear(in_features=256, out_features=128, bias=True)
intraCycleLayers.1.experts.8.ln LayerNorm((128,), eps=1e-05, elementwise_affine=True)
intraCycleLayers.1.experts.9 MLPBlock(
  (in_linear): Linear(in_features=128, out_features=256, bias=True)
  (dropout): Dropout(p=0.05, inplace=False)
  (act): ReLU()
  (out_linear): Linear(in_features=256, out_features=128, bias=True)
  (ln): LayerNorm((128,), eps=1e-05, elementwise_affine=True)
)
intraCycleLayers.1.experts.9.in_linear Linear(in_features=128, out_features=256, bias=True)
intraCycleLayers.1.experts.9.dropout Dropout(p=0.05, inplace=False)
intraCycleLayers.1.experts.9.act ReLU()
intraCycleLayers.1.experts.9.out_linear Linear(in_features=256, out_features=128, bias=True)
intraCycleLayers.1.experts.9.ln LayerNorm((128,), eps=1e-05, elementwise_affine=True)
intraCycleLayers.1.general_experts ModuleList(
  (0): MLPBlock(
    (in_linear): Linear(in_features=128, out_features=256, bias=True)
    (dropout): Dropout(p=0.05, inplace=False)
    (act): ReLU()
    (out_linear): Linear(in_features=256, out_features=128, bias=True)
    (ln): LayerNorm((128,), eps=1e-05, elementwise_affine=True)
  )
)
intraCycleLayers.1.general_experts.0 MLPBlock(
  (in_linear): Linear(in_features=128, out_features=256, bias=True)
  (dropout): Dropout(p=0.05, inplace=False)
  (act): ReLU()
  (out_linear): Linear(in_features=256, out_features=128, bias=True)
  (ln): LayerNorm((128,), eps=1e-05, elementwise_affine=True)
)
intraCycleLayers.1.general_experts.0.in_linear Linear(in_features=128, out_features=256, bias=True)
intraCycleLayers.1.general_experts.0.dropout Dropout(p=0.05, inplace=False)
intraCycleLayers.1.general_experts.0.act ReLU()
intraCycleLayers.1.general_experts.0.out_linear Linear(in_features=256, out_features=128, bias=True)
intraCycleLayers.1.general_experts.0.ln LayerNorm((128,), eps=1e-05, elementwise_affine=True)
intraCycleLayers.1.gate PatternRouterMLP(
  (distribution_fit): Sequential(
    (0): Linear(in_features=3072, out_features=1536, bias=True)
    (1): LeakyReLU(negative_slope=0.01)
    (2): Linear(in_features=1536, out_features=10, bias=True)
  )
)
intraCycleLayers.1.gate.distribution_fit Sequential(
  (0): Linear(in_features=3072, out_features=1536, bias=True)
  (1): LeakyReLU(negative_slope=0.01)
  (2): Linear(in_features=1536, out_features=10, bias=True)
)
intraCycleLayers.1.gate.distribution_fit.0 Linear(in_features=3072, out_features=1536, bias=True)
intraCycleLayers.1.gate.distribution_fit.1 LeakyReLU(negative_slope=0.01)
intraCycleLayers.1.gate.distribution_fit.2 Linear(in_features=1536, out_features=10, bias=True)
intraCycleLayers.1.noise PatternRouterMLP(
  (distribution_fit): Sequential(
    (0): Linear(in_features=3072, out_features=1536, bias=True)
    (1): LeakyReLU(negative_slope=0.01)
    (2): Linear(in_features=1536, out_features=10, bias=True)
  )
)
intraCycleLayers.1.noise.distribution_fit Sequential(
  (0): Linear(in_features=3072, out_features=1536, bias=True)
  (1): LeakyReLU(negative_slope=0.01)
  (2): Linear(in_features=1536, out_features=10, bias=True)
)
intraCycleLayers.1.noise.distribution_fit.0 Linear(in_features=3072, out_features=1536, bias=True)
intraCycleLayers.1.noise.distribution_fit.1 LeakyReLU(negative_slope=0.01)
intraCycleLayers.1.noise.distribution_fit.2 Linear(in_features=1536, out_features=10, bias=True)
intraCycleLayers.1.softplus Softplus(beta=1.0, threshold=20.0)
intraCycleLayers.2 IntraCycleMoELayer(
  (experts): ModuleList(
    (0-9): 10 x MLPBlock(
      (in_linear): Linear(in_features=128, out_features=256, bias=True)
      (dropout): Dropout(p=0.05, inplace=False)
      (act): ReLU()
      (out_linear): Linear(in_features=256, out_features=128, bias=True)
      (ln): LayerNorm((128,), eps=1e-05, elementwise_affine=True)
    )
  )
  (general_experts): ModuleList(
    (0): MLPBlock(
      (in_linear): Linear(in_features=128, out_features=256, bias=True)
      (dropout): Dropout(p=0.05, inplace=False)
      (act): ReLU()
      (out_linear): Linear(in_features=256, out_features=128, bias=True)
      (ln): LayerNorm((128,), eps=1e-05, elementwise_affine=True)
    )
  )
  (gate): PatternRouterMLP(
    (distribution_fit): Sequential(
      (0): Linear(in_features=3072, out_features=1536, bias=True)
      (1): LeakyReLU(negative_slope=0.01)
      (2): Linear(in_features=1536, out_features=10, bias=True)
    )
  )
  (noise): PatternRouterMLP(
    (distribution_fit): Sequential(
      (0): Linear(in_features=3072, out_features=1536, bias=True)
      (1): LeakyReLU(negative_slope=0.01)
      (2): Linear(in_features=1536, out_features=10, bias=True)
    )
  )
  (softplus): Softplus(beta=1.0, threshold=20.0)
)
intraCycleLayers.2.experts ModuleList(
  (0-9): 10 x MLPBlock(
    (in_linear): Linear(in_features=128, out_features=256, bias=True)
    (dropout): Dropout(p=0.05, inplace=False)
    (act): ReLU()
    (out_linear): Linear(in_features=256, out_features=128, bias=True)
    (ln): LayerNorm((128,), eps=1e-05, elementwise_affine=True)
  )
)
intraCycleLayers.2.experts.0 MLPBlock(
  (in_linear): Linear(in_features=128, out_features=256, bias=True)
  (dropout): Dropout(p=0.05, inplace=False)
  (act): ReLU()
  (out_linear): Linear(in_features=256, out_features=128, bias=True)
  (ln): LayerNorm((128,), eps=1e-05, elementwise_affine=True)
)
intraCycleLayers.2.experts.0.in_linear Linear(in_features=128, out_features=256, bias=True)
intraCycleLayers.2.experts.0.dropout Dropout(p=0.05, inplace=False)
intraCycleLayers.2.experts.0.act ReLU()
intraCycleLayers.2.experts.0.out_linear Linear(in_features=256, out_features=128, bias=True)
intraCycleLayers.2.experts.0.ln LayerNorm((128,), eps=1e-05, elementwise_affine=True)
intraCycleLayers.2.experts.1 MLPBlock(
  (in_linear): Linear(in_features=128, out_features=256, bias=True)
  (dropout): Dropout(p=0.05, inplace=False)
  (act): ReLU()
  (out_linear): Linear(in_features=256, out_features=128, bias=True)
  (ln): LayerNorm((128,), eps=1e-05, elementwise_affine=True)
)
intraCycleLayers.2.experts.1.in_linear Linear(in_features=128, out_features=256, bias=True)
intraCycleLayers.2.experts.1.dropout Dropout(p=0.05, inplace=False)
intraCycleLayers.2.experts.1.act ReLU()
intraCycleLayers.2.experts.1.out_linear Linear(in_features=256, out_features=128, bias=True)
intraCycleLayers.2.experts.1.ln LayerNorm((128,), eps=1e-05, elementwise_affine=True)
intraCycleLayers.2.experts.2 MLPBlock(
  (in_linear): Linear(in_features=128, out_features=256, bias=True)
  (dropout): Dropout(p=0.05, inplace=False)
  (act): ReLU()
  (out_linear): Linear(in_features=256, out_features=128, bias=True)
  (ln): LayerNorm((128,), eps=1e-05, elementwise_affine=True)
)
intraCycleLayers.2.experts.2.in_linear Linear(in_features=128, out_features=256, bias=True)
intraCycleLayers.2.experts.2.dropout Dropout(p=0.05, inplace=False)
intraCycleLayers.2.experts.2.act ReLU()
intraCycleLayers.2.experts.2.out_linear Linear(in_features=256, out_features=128, bias=True)
intraCycleLayers.2.experts.2.ln LayerNorm((128,), eps=1e-05, elementwise_affine=True)
intraCycleLayers.2.experts.3 MLPBlock(
  (in_linear): Linear(in_features=128, out_features=256, bias=True)
  (dropout): Dropout(p=0.05, inplace=False)
  (act): ReLU()
  (out_linear): Linear(in_features=256, out_features=128, bias=True)
  (ln): LayerNorm((128,), eps=1e-05, elementwise_affine=True)
)
intraCycleLayers.2.experts.3.in_linear Linear(in_features=128, out_features=256, bias=True)
intraCycleLayers.2.experts.3.dropout Dropout(p=0.05, inplace=False)
intraCycleLayers.2.experts.3.act ReLU()
intraCycleLayers.2.experts.3.out_linear Linear(in_features=256, out_features=128, bias=True)
intraCycleLayers.2.experts.3.ln LayerNorm((128,), eps=1e-05, elementwise_affine=True)
intraCycleLayers.2.experts.4 MLPBlock(
  (in_linear): Linear(in_features=128, out_features=256, bias=True)
  (dropout): Dropout(p=0.05, inplace=False)
  (act): ReLU()
  (out_linear): Linear(in_features=256, out_features=128, bias=True)
  (ln): LayerNorm((128,), eps=1e-05, elementwise_affine=True)
)
intraCycleLayers.2.experts.4.in_linear Linear(in_features=128, out_features=256, bias=True)
intraCycleLayers.2.experts.4.dropout Dropout(p=0.05, inplace=False)
intraCycleLayers.2.experts.4.act ReLU()
intraCycleLayers.2.experts.4.out_linear Linear(in_features=256, out_features=128, bias=True)
intraCycleLayers.2.experts.4.ln LayerNorm((128,), eps=1e-05, elementwise_affine=True)
intraCycleLayers.2.experts.5 MLPBlock(
  (in_linear): Linear(in_features=128, out_features=256, bias=True)
  (dropout): Dropout(p=0.05, inplace=False)
  (act): ReLU()
  (out_linear): Linear(in_features=256, out_features=128, bias=True)
  (ln): LayerNorm((128,), eps=1e-05, elementwise_affine=True)
)
intraCycleLayers.2.experts.5.in_linear Linear(in_features=128, out_features=256, bias=True)
intraCycleLayers.2.experts.5.dropout Dropout(p=0.05, inplace=False)
intraCycleLayers.2.experts.5.act ReLU()
intraCycleLayers.2.experts.5.out_linear Linear(in_features=256, out_features=128, bias=True)
intraCycleLayers.2.experts.5.ln LayerNorm((128,), eps=1e-05, elementwise_affine=True)
intraCycleLayers.2.experts.6 MLPBlock(
  (in_linear): Linear(in_features=128, out_features=256, bias=True)
  (dropout): Dropout(p=0.05, inplace=False)
  (act): ReLU()
  (out_linear): Linear(in_features=256, out_features=128, bias=True)
  (ln): LayerNorm((128,), eps=1e-05, elementwise_affine=True)
)
intraCycleLayers.2.experts.6.in_linear Linear(in_features=128, out_features=256, bias=True)
intraCycleLayers.2.experts.6.dropout Dropout(p=0.05, inplace=False)
intraCycleLayers.2.experts.6.act ReLU()
intraCycleLayers.2.experts.6.out_linear Linear(in_features=256, out_features=128, bias=True)
intraCycleLayers.2.experts.6.ln LayerNorm((128,), eps=1e-05, elementwise_affine=True)
intraCycleLayers.2.experts.7 MLPBlock(
  (in_linear): Linear(in_features=128, out_features=256, bias=True)
  (dropout): Dropout(p=0.05, inplace=False)
  (act): ReLU()
  (out_linear): Linear(in_features=256, out_features=128, bias=True)
  (ln): LayerNorm((128,), eps=1e-05, elementwise_affine=True)
)
intraCycleLayers.2.experts.7.in_linear Linear(in_features=128, out_features=256, bias=True)
intraCycleLayers.2.experts.7.dropout Dropout(p=0.05, inplace=False)
intraCycleLayers.2.experts.7.act ReLU()
intraCycleLayers.2.experts.7.out_linear Linear(in_features=256, out_features=128, bias=True)
intraCycleLayers.2.experts.7.ln LayerNorm((128,), eps=1e-05, elementwise_affine=True)
intraCycleLayers.2.experts.8 MLPBlock(
  (in_linear): Linear(in_features=128, out_features=256, bias=True)
  (dropout): Dropout(p=0.05, inplace=False)
  (act): ReLU()
  (out_linear): Linear(in_features=256, out_features=128, bias=True)
  (ln): LayerNorm((128,), eps=1e-05, elementwise_affine=True)
)
intraCycleLayers.2.experts.8.in_linear Linear(in_features=128, out_features=256, bias=True)
intraCycleLayers.2.experts.8.dropout Dropout(p=0.05, inplace=False)
intraCycleLayers.2.experts.8.act ReLU()
intraCycleLayers.2.experts.8.out_linear Linear(in_features=256, out_features=128, bias=True)
intraCycleLayers.2.experts.8.ln LayerNorm((128,), eps=1e-05, elementwise_affine=True)
intraCycleLayers.2.experts.9 MLPBlock(
  (in_linear): Linear(in_features=128, out_features=256, bias=True)
  (dropout): Dropout(p=0.05, inplace=False)
  (act): ReLU()
  (out_linear): Linear(in_features=256, out_features=128, bias=True)
  (ln): LayerNorm((128,), eps=1e-05, elementwise_affine=True)
)
intraCycleLayers.2.experts.9.in_linear Linear(in_features=128, out_features=256, bias=True)
intraCycleLayers.2.experts.9.dropout Dropout(p=0.05, inplace=False)
intraCycleLayers.2.experts.9.act ReLU()
intraCycleLayers.2.experts.9.out_linear Linear(in_features=256, out_features=128, bias=True)
intraCycleLayers.2.experts.9.ln LayerNorm((128,), eps=1e-05, elementwise_affine=True)
intraCycleLayers.2.general_experts ModuleList(
  (0): MLPBlock(
    (in_linear): Linear(in_features=128, out_features=256, bias=True)
    (dropout): Dropout(p=0.05, inplace=False)
    (act): ReLU()
    (out_linear): Linear(in_features=256, out_features=128, bias=True)
    (ln): LayerNorm((128,), eps=1e-05, elementwise_affine=True)
  )
)
intraCycleLayers.2.general_experts.0 MLPBlock(
  (in_linear): Linear(in_features=128, out_features=256, bias=True)
  (dropout): Dropout(p=0.05, inplace=False)
  (act): ReLU()
  (out_linear): Linear(in_features=256, out_features=128, bias=True)
  (ln): LayerNorm((128,), eps=1e-05, elementwise_affine=True)
)
intraCycleLayers.2.general_experts.0.in_linear Linear(in_features=128, out_features=256, bias=True)
intraCycleLayers.2.general_experts.0.dropout Dropout(p=0.05, inplace=False)
intraCycleLayers.2.general_experts.0.act ReLU()
intraCycleLayers.2.general_experts.0.out_linear Linear(in_features=256, out_features=128, bias=True)
intraCycleLayers.2.general_experts.0.ln LayerNorm((128,), eps=1e-05, elementwise_affine=True)
intraCycleLayers.2.gate PatternRouterMLP(
  (distribution_fit): Sequential(
    (0): Linear(in_features=3072, out_features=1536, bias=True)
    (1): LeakyReLU(negative_slope=0.01)
    (2): Linear(in_features=1536, out_features=10, bias=True)
  )
)
intraCycleLayers.2.gate.distribution_fit Sequential(
  (0): Linear(in_features=3072, out_features=1536, bias=True)
  (1): LeakyReLU(negative_slope=0.01)
  (2): Linear(in_features=1536, out_features=10, bias=True)
)
intraCycleLayers.2.gate.distribution_fit.0 Linear(in_features=3072, out_features=1536, bias=True)
intraCycleLayers.2.gate.distribution_fit.1 LeakyReLU(negative_slope=0.01)
intraCycleLayers.2.gate.distribution_fit.2 Linear(in_features=1536, out_features=10, bias=True)
intraCycleLayers.2.noise PatternRouterMLP(
  (distribution_fit): Sequential(
    (0): Linear(in_features=3072, out_features=1536, bias=True)
    (1): LeakyReLU(negative_slope=0.01)
    (2): Linear(in_features=1536, out_features=10, bias=True)
  )
)
intraCycleLayers.2.noise.distribution_fit Sequential(
  (0): Linear(in_features=3072, out_features=1536, bias=True)
  (1): LeakyReLU(negative_slope=0.01)
  (2): Linear(in_features=1536, out_features=10, bias=True)
)
intraCycleLayers.2.noise.distribution_fit.0 Linear(in_features=3072, out_features=1536, bias=True)
intraCycleLayers.2.noise.distribution_fit.1 LeakyReLU(negative_slope=0.01)
intraCycleLayers.2.noise.distribution_fit.2 Linear(in_features=1536, out_features=10, bias=True)
intraCycleLayers.2.softplus Softplus(beta=1.0, threshold=20.0)
intraCycleLayers.3 IntraCycleMoELayer(
  (experts): ModuleList(
    (0-9): 10 x MLPBlock(
      (in_linear): Linear(in_features=128, out_features=256, bias=True)
      (dropout): Dropout(p=0.05, inplace=False)
      (act): ReLU()
      (out_linear): Linear(in_features=256, out_features=128, bias=True)
      (ln): LayerNorm((128,), eps=1e-05, elementwise_affine=True)
    )
  )
  (general_experts): ModuleList(
    (0): MLPBlock(
      (in_linear): Linear(in_features=128, out_features=256, bias=True)
      (dropout): Dropout(p=0.05, inplace=False)
      (act): ReLU()
      (out_linear): Linear(in_features=256, out_features=128, bias=True)
      (ln): LayerNorm((128,), eps=1e-05, elementwise_affine=True)
    )
  )
  (gate): PatternRouterMLP(
    (distribution_fit): Sequential(
      (0): Linear(in_features=3072, out_features=1536, bias=True)
      (1): LeakyReLU(negative_slope=0.01)
      (2): Linear(in_features=1536, out_features=10, bias=True)
    )
  )
  (noise): PatternRouterMLP(
    (distribution_fit): Sequential(
      (0): Linear(in_features=3072, out_features=1536, bias=True)
      (1): LeakyReLU(negative_slope=0.01)
      (2): Linear(in_features=1536, out_features=10, bias=True)
    )
  )
  (softplus): Softplus(beta=1.0, threshold=20.0)
)
intraCycleLayers.3.experts ModuleList(
  (0-9): 10 x MLPBlock(
    (in_linear): Linear(in_features=128, out_features=256, bias=True)
    (dropout): Dropout(p=0.05, inplace=False)
    (act): ReLU()
    (out_linear): Linear(in_features=256, out_features=128, bias=True)
    (ln): LayerNorm((128,), eps=1e-05, elementwise_affine=True)
  )
)
intraCycleLayers.3.experts.0 MLPBlock(
  (in_linear): Linear(in_features=128, out_features=256, bias=True)
  (dropout): Dropout(p=0.05, inplace=False)
  (act): ReLU()
  (out_linear): Linear(in_features=256, out_features=128, bias=True)
  (ln): LayerNorm((128,), eps=1e-05, elementwise_affine=True)
)
intraCycleLayers.3.experts.0.in_linear Linear(in_features=128, out_features=256, bias=True)
intraCycleLayers.3.experts.0.dropout Dropout(p=0.05, inplace=False)
intraCycleLayers.3.experts.0.act ReLU()
intraCycleLayers.3.experts.0.out_linear Linear(in_features=256, out_features=128, bias=True)
intraCycleLayers.3.experts.0.ln LayerNorm((128,), eps=1e-05, elementwise_affine=True)
intraCycleLayers.3.experts.1 MLPBlock(
  (in_linear): Linear(in_features=128, out_features=256, bias=True)
  (dropout): Dropout(p=0.05, inplace=False)
  (act): ReLU()
  (out_linear): Linear(in_features=256, out_features=128, bias=True)
  (ln): LayerNorm((128,), eps=1e-05, elementwise_affine=True)
)
intraCycleLayers.3.experts.1.in_linear Linear(in_features=128, out_features=256, bias=True)
intraCycleLayers.3.experts.1.dropout Dropout(p=0.05, inplace=False)
intraCycleLayers.3.experts.1.act ReLU()
intraCycleLayers.3.experts.1.out_linear Linear(in_features=256, out_features=128, bias=True)
intraCycleLayers.3.experts.1.ln LayerNorm((128,), eps=1e-05, elementwise_affine=True)
intraCycleLayers.3.experts.2 MLPBlock(
  (in_linear): Linear(in_features=128, out_features=256, bias=True)
  (dropout): Dropout(p=0.05, inplace=False)
  (act): ReLU()
  (out_linear): Linear(in_features=256, out_features=128, bias=True)
  (ln): LayerNorm((128,), eps=1e-05, elementwise_affine=True)
)
intraCycleLayers.3.experts.2.in_linear Linear(in_features=128, out_features=256, bias=True)
intraCycleLayers.3.experts.2.dropout Dropout(p=0.05, inplace=False)
intraCycleLayers.3.experts.2.act ReLU()
intraCycleLayers.3.experts.2.out_linear Linear(in_features=256, out_features=128, bias=True)
intraCycleLayers.3.experts.2.ln LayerNorm((128,), eps=1e-05, elementwise_affine=True)
intraCycleLayers.3.experts.3 MLPBlock(
  (in_linear): Linear(in_features=128, out_features=256, bias=True)
  (dropout): Dropout(p=0.05, inplace=False)
  (act): ReLU()
  (out_linear): Linear(in_features=256, out_features=128, bias=True)
  (ln): LayerNorm((128,), eps=1e-05, elementwise_affine=True)
)
intraCycleLayers.3.experts.3.in_linear Linear(in_features=128, out_features=256, bias=True)
intraCycleLayers.3.experts.3.dropout Dropout(p=0.05, inplace=False)
intraCycleLayers.3.experts.3.act ReLU()
intraCycleLayers.3.experts.3.out_linear Linear(in_features=256, out_features=128, bias=True)
intraCycleLayers.3.experts.3.ln LayerNorm((128,), eps=1e-05, elementwise_affine=True)
intraCycleLayers.3.experts.4 MLPBlock(
  (in_linear): Linear(in_features=128, out_features=256, bias=True)
  (dropout): Dropout(p=0.05, inplace=False)
  (act): ReLU()
  (out_linear): Linear(in_features=256, out_features=128, bias=True)
  (ln): LayerNorm((128,), eps=1e-05, elementwise_affine=True)
)
intraCycleLayers.3.experts.4.in_linear Linear(in_features=128, out_features=256, bias=True)
intraCycleLayers.3.experts.4.dropout Dropout(p=0.05, inplace=False)
intraCycleLayers.3.experts.4.act ReLU()
intraCycleLayers.3.experts.4.out_linear Linear(in_features=256, out_features=128, bias=True)
intraCycleLayers.3.experts.4.ln LayerNorm((128,), eps=1e-05, elementwise_affine=True)
intraCycleLayers.3.experts.5 MLPBlock(
  (in_linear): Linear(in_features=128, out_features=256, bias=True)
  (dropout): Dropout(p=0.05, inplace=False)
  (act): ReLU()
  (out_linear): Linear(in_features=256, out_features=128, bias=True)
  (ln): LayerNorm((128,), eps=1e-05, elementwise_affine=True)
)
intraCycleLayers.3.experts.5.in_linear Linear(in_features=128, out_features=256, bias=True)
intraCycleLayers.3.experts.5.dropout Dropout(p=0.05, inplace=False)
intraCycleLayers.3.experts.5.act ReLU()
intraCycleLayers.3.experts.5.out_linear Linear(in_features=256, out_features=128, bias=True)
intraCycleLayers.3.experts.5.ln LayerNorm((128,), eps=1e-05, elementwise_affine=True)
intraCycleLayers.3.experts.6 MLPBlock(
  (in_linear): Linear(in_features=128, out_features=256, bias=True)
  (dropout): Dropout(p=0.05, inplace=False)
  (act): ReLU()
  (out_linear): Linear(in_features=256, out_features=128, bias=True)
  (ln): LayerNorm((128,), eps=1e-05, elementwise_affine=True)
)
intraCycleLayers.3.experts.6.in_linear Linear(in_features=128, out_features=256, bias=True)
intraCycleLayers.3.experts.6.dropout Dropout(p=0.05, inplace=False)
intraCycleLayers.3.experts.6.act ReLU()
intraCycleLayers.3.experts.6.out_linear Linear(in_features=256, out_features=128, bias=True)
intraCycleLayers.3.experts.6.ln LayerNorm((128,), eps=1e-05, elementwise_affine=True)
intraCycleLayers.3.experts.7 MLPBlock(
  (in_linear): Linear(in_features=128, out_features=256, bias=True)
  (dropout): Dropout(p=0.05, inplace=False)
  (act): ReLU()
  (out_linear): Linear(in_features=256, out_features=128, bias=True)
  (ln): LayerNorm((128,), eps=1e-05, elementwise_affine=True)
)
intraCycleLayers.3.experts.7.in_linear Linear(in_features=128, out_features=256, bias=True)
intraCycleLayers.3.experts.7.dropout Dropout(p=0.05, inplace=False)
intraCycleLayers.3.experts.7.act ReLU()
intraCycleLayers.3.experts.7.out_linear Linear(in_features=256, out_features=128, bias=True)
intraCycleLayers.3.experts.7.ln LayerNorm((128,), eps=1e-05, elementwise_affine=True)
intraCycleLayers.3.experts.8 MLPBlock(
  (in_linear): Linear(in_features=128, out_features=256, bias=True)
  (dropout): Dropout(p=0.05, inplace=False)
  (act): ReLU()
  (out_linear): Linear(in_features=256, out_features=128, bias=True)
  (ln): LayerNorm((128,), eps=1e-05, elementwise_affine=True)
)
intraCycleLayers.3.experts.8.in_linear Linear(in_features=128, out_features=256, bias=True)
intraCycleLayers.3.experts.8.dropout Dropout(p=0.05, inplace=False)
intraCycleLayers.3.experts.8.act ReLU()
intraCycleLayers.3.experts.8.out_linear Linear(in_features=256, out_features=128, bias=True)
intraCycleLayers.3.experts.8.ln LayerNorm((128,), eps=1e-05, elementwise_affine=True)
intraCycleLayers.3.experts.9 MLPBlock(
  (in_linear): Linear(in_features=128, out_features=256, bias=True)
  (dropout): Dropout(p=0.05, inplace=False)
  (act): ReLU()
  (out_linear): Linear(in_features=256, out_features=128, bias=True)
  (ln): LayerNorm((128,), eps=1e-05, elementwise_affine=True)
)
intraCycleLayers.3.experts.9.in_linear Linear(in_features=128, out_features=256, bias=True)
intraCycleLayers.3.experts.9.dropout Dropout(p=0.05, inplace=False)
intraCycleLayers.3.experts.9.act ReLU()
intraCycleLayers.3.experts.9.out_linear Linear(in_features=256, out_features=128, bias=True)
intraCycleLayers.3.experts.9.ln LayerNorm((128,), eps=1e-05, elementwise_affine=True)
intraCycleLayers.3.general_experts ModuleList(
  (0): MLPBlock(
    (in_linear): Linear(in_features=128, out_features=256, bias=True)
    (dropout): Dropout(p=0.05, inplace=False)
    (act): ReLU()
    (out_linear): Linear(in_features=256, out_features=128, bias=True)
    (ln): LayerNorm((128,), eps=1e-05, elementwise_affine=True)
  )
)
intraCycleLayers.3.general_experts.0 MLPBlock(
  (in_linear): Linear(in_features=128, out_features=256, bias=True)
  (dropout): Dropout(p=0.05, inplace=False)
  (act): ReLU()
  (out_linear): Linear(in_features=256, out_features=128, bias=True)
  (ln): LayerNorm((128,), eps=1e-05, elementwise_affine=True)
)
intraCycleLayers.3.general_experts.0.in_linear Linear(in_features=128, out_features=256, bias=True)
intraCycleLayers.3.general_experts.0.dropout Dropout(p=0.05, inplace=False)
intraCycleLayers.3.general_experts.0.act ReLU()
intraCycleLayers.3.general_experts.0.out_linear Linear(in_features=256, out_features=128, bias=True)
intraCycleLayers.3.general_experts.0.ln LayerNorm((128,), eps=1e-05, elementwise_affine=True)
intraCycleLayers.3.gate PatternRouterMLP(
  (distribution_fit): Sequential(
    (0): Linear(in_features=3072, out_features=1536, bias=True)
    (1): LeakyReLU(negative_slope=0.01)
    (2): Linear(in_features=1536, out_features=10, bias=True)
  )
)
intraCycleLayers.3.gate.distribution_fit Sequential(
  (0): Linear(in_features=3072, out_features=1536, bias=True)
  (1): LeakyReLU(negative_slope=0.01)
  (2): Linear(in_features=1536, out_features=10, bias=True)
)
intraCycleLayers.3.gate.distribution_fit.0 Linear(in_features=3072, out_features=1536, bias=True)
intraCycleLayers.3.gate.distribution_fit.1 LeakyReLU(negative_slope=0.01)
intraCycleLayers.3.gate.distribution_fit.2 Linear(in_features=1536, out_features=10, bias=True)
intraCycleLayers.3.noise PatternRouterMLP(
  (distribution_fit): Sequential(
    (0): Linear(in_features=3072, out_features=1536, bias=True)
    (1): LeakyReLU(negative_slope=0.01)
    (2): Linear(in_features=1536, out_features=10, bias=True)
  )
)
intraCycleLayers.3.noise.distribution_fit Sequential(
  (0): Linear(in_features=3072, out_features=1536, bias=True)
  (1): LeakyReLU(negative_slope=0.01)
  (2): Linear(in_features=1536, out_features=10, bias=True)
)
intraCycleLayers.3.noise.distribution_fit.0 Linear(in_features=3072, out_features=1536, bias=True)
intraCycleLayers.3.noise.distribution_fit.1 LeakyReLU(negative_slope=0.01)
intraCycleLayers.3.noise.distribution_fit.2 Linear(in_features=1536, out_features=10, bias=True)
intraCycleLayers.3.softplus Softplus(beta=1.0, threshold=20.0)
intraCycleLayers.4 IntraCycleMoELayer(
  (experts): ModuleList(
    (0-9): 10 x MLPBlock(
      (in_linear): Linear(in_features=128, out_features=256, bias=True)
      (dropout): Dropout(p=0.05, inplace=False)
      (act): ReLU()
      (out_linear): Linear(in_features=256, out_features=128, bias=True)
      (ln): LayerNorm((128,), eps=1e-05, elementwise_affine=True)
    )
  )
  (general_experts): ModuleList(
    (0): MLPBlock(
      (in_linear): Linear(in_features=128, out_features=256, bias=True)
      (dropout): Dropout(p=0.05, inplace=False)
      (act): ReLU()
      (out_linear): Linear(in_features=256, out_features=128, bias=True)
      (ln): LayerNorm((128,), eps=1e-05, elementwise_affine=True)
    )
  )
  (gate): PatternRouterMLP(
    (distribution_fit): Sequential(
      (0): Linear(in_features=3072, out_features=1536, bias=True)
      (1): LeakyReLU(negative_slope=0.01)
      (2): Linear(in_features=1536, out_features=10, bias=True)
    )
  )
  (noise): PatternRouterMLP(
    (distribution_fit): Sequential(
      (0): Linear(in_features=3072, out_features=1536, bias=True)
      (1): LeakyReLU(negative_slope=0.01)
      (2): Linear(in_features=1536, out_features=10, bias=True)
    )
  )
  (softplus): Softplus(beta=1.0, threshold=20.0)
)
intraCycleLayers.4.experts ModuleList(
  (0-9): 10 x MLPBlock(
    (in_linear): Linear(in_features=128, out_features=256, bias=True)
    (dropout): Dropout(p=0.05, inplace=False)
    (act): ReLU()
    (out_linear): Linear(in_features=256, out_features=128, bias=True)
    (ln): LayerNorm((128,), eps=1e-05, elementwise_affine=True)
  )
)
intraCycleLayers.4.experts.0 MLPBlock(
  (in_linear): Linear(in_features=128, out_features=256, bias=True)
  (dropout): Dropout(p=0.05, inplace=False)
  (act): ReLU()
  (out_linear): Linear(in_features=256, out_features=128, bias=True)
  (ln): LayerNorm((128,), eps=1e-05, elementwise_affine=True)
)
intraCycleLayers.4.experts.0.in_linear Linear(in_features=128, out_features=256, bias=True)
intraCycleLayers.4.experts.0.dropout Dropout(p=0.05, inplace=False)
intraCycleLayers.4.experts.0.act ReLU()
intraCycleLayers.4.experts.0.out_linear Linear(in_features=256, out_features=128, bias=True)
intraCycleLayers.4.experts.0.ln LayerNorm((128,), eps=1e-05, elementwise_affine=True)
intraCycleLayers.4.experts.1 MLPBlock(
  (in_linear): Linear(in_features=128, out_features=256, bias=True)
  (dropout): Dropout(p=0.05, inplace=False)
  (act): ReLU()
  (out_linear): Linear(in_features=256, out_features=128, bias=True)
  (ln): LayerNorm((128,), eps=1e-05, elementwise_affine=True)
)
intraCycleLayers.4.experts.1.in_linear Linear(in_features=128, out_features=256, bias=True)
intraCycleLayers.4.experts.1.dropout Dropout(p=0.05, inplace=False)
intraCycleLayers.4.experts.1.act ReLU()
intraCycleLayers.4.experts.1.out_linear Linear(in_features=256, out_features=128, bias=True)
intraCycleLayers.4.experts.1.ln LayerNorm((128,), eps=1e-05, elementwise_affine=True)
intraCycleLayers.4.experts.2 MLPBlock(
  (in_linear): Linear(in_features=128, out_features=256, bias=True)
  (dropout): Dropout(p=0.05, inplace=False)
  (act): ReLU()
  (out_linear): Linear(in_features=256, out_features=128, bias=True)
  (ln): LayerNorm((128,), eps=1e-05, elementwise_affine=True)
)
intraCycleLayers.4.experts.2.in_linear Linear(in_features=128, out_features=256, bias=True)
intraCycleLayers.4.experts.2.dropout Dropout(p=0.05, inplace=False)
intraCycleLayers.4.experts.2.act ReLU()
intraCycleLayers.4.experts.2.out_linear Linear(in_features=256, out_features=128, bias=True)
intraCycleLayers.4.experts.2.ln LayerNorm((128,), eps=1e-05, elementwise_affine=True)
intraCycleLayers.4.experts.3 MLPBlock(
  (in_linear): Linear(in_features=128, out_features=256, bias=True)
  (dropout): Dropout(p=0.05, inplace=False)
  (act): ReLU()
  (out_linear): Linear(in_features=256, out_features=128, bias=True)
  (ln): LayerNorm((128,), eps=1e-05, elementwise_affine=True)
)
intraCycleLayers.4.experts.3.in_linear Linear(in_features=128, out_features=256, bias=True)
intraCycleLayers.4.experts.3.dropout Dropout(p=0.05, inplace=False)
intraCycleLayers.4.experts.3.act ReLU()
intraCycleLayers.4.experts.3.out_linear Linear(in_features=256, out_features=128, bias=True)
intraCycleLayers.4.experts.3.ln LayerNorm((128,), eps=1e-05, elementwise_affine=True)
intraCycleLayers.4.experts.4 MLPBlock(
  (in_linear): Linear(in_features=128, out_features=256, bias=True)
  (dropout): Dropout(p=0.05, inplace=False)
  (act): ReLU()
  (out_linear): Linear(in_features=256, out_features=128, bias=True)
  (ln): LayerNorm((128,), eps=1e-05, elementwise_affine=True)
)
intraCycleLayers.4.experts.4.in_linear Linear(in_features=128, out_features=256, bias=True)
intraCycleLayers.4.experts.4.dropout Dropout(p=0.05, inplace=False)
intraCycleLayers.4.experts.4.act ReLU()
intraCycleLayers.4.experts.4.out_linear Linear(in_features=256, out_features=128, bias=True)
intraCycleLayers.4.experts.4.ln LayerNorm((128,), eps=1e-05, elementwise_affine=True)
intraCycleLayers.4.experts.5 MLPBlock(
  (in_linear): Linear(in_features=128, out_features=256, bias=True)
  (dropout): Dropout(p=0.05, inplace=False)
  (act): ReLU()
  (out_linear): Linear(in_features=256, out_features=128, bias=True)
  (ln): LayerNorm((128,), eps=1e-05, elementwise_affine=True)
)
intraCycleLayers.4.experts.5.in_linear Linear(in_features=128, out_features=256, bias=True)
intraCycleLayers.4.experts.5.dropout Dropout(p=0.05, inplace=False)
intraCycleLayers.4.experts.5.act ReLU()
intraCycleLayers.4.experts.5.out_linear Linear(in_features=256, out_features=128, bias=True)
intraCycleLayers.4.experts.5.ln LayerNorm((128,), eps=1e-05, elementwise_affine=True)
intraCycleLayers.4.experts.6 MLPBlock(
  (in_linear): Linear(in_features=128, out_features=256, bias=True)
  (dropout): Dropout(p=0.05, inplace=False)
  (act): ReLU()
  (out_linear): Linear(in_features=256, out_features=128, bias=True)
  (ln): LayerNorm((128,), eps=1e-05, elementwise_affine=True)
)
intraCycleLayers.4.experts.6.in_linear Linear(in_features=128, out_features=256, bias=True)
intraCycleLayers.4.experts.6.dropout Dropout(p=0.05, inplace=False)
intraCycleLayers.4.experts.6.act ReLU()
intraCycleLayers.4.experts.6.out_linear Linear(in_features=256, out_features=128, bias=True)
intraCycleLayers.4.experts.6.ln LayerNorm((128,), eps=1e-05, elementwise_affine=True)
intraCycleLayers.4.experts.7 MLPBlock(
  (in_linear): Linear(in_features=128, out_features=256, bias=True)
  (dropout): Dropout(p=0.05, inplace=False)
  (act): ReLU()
  (out_linear): Linear(in_features=256, out_features=128, bias=True)
  (ln): LayerNorm((128,), eps=1e-05, elementwise_affine=True)
)
intraCycleLayers.4.experts.7.in_linear Linear(in_features=128, out_features=256, bias=True)
intraCycleLayers.4.experts.7.dropout Dropout(p=0.05, inplace=False)
intraCycleLayers.4.experts.7.act ReLU()
intraCycleLayers.4.experts.7.out_linear Linear(in_features=256, out_features=128, bias=True)
intraCycleLayers.4.experts.7.ln LayerNorm((128,), eps=1e-05, elementwise_affine=True)
intraCycleLayers.4.experts.8 MLPBlock(
  (in_linear): Linear(in_features=128, out_features=256, bias=True)
  (dropout): Dropout(p=0.05, inplace=False)
  (act): ReLU()
  (out_linear): Linear(in_features=256, out_features=128, bias=True)
  (ln): LayerNorm((128,), eps=1e-05, elementwise_affine=True)
)
intraCycleLayers.4.experts.8.in_linear Linear(in_features=128, out_features=256, bias=True)
intraCycleLayers.4.experts.8.dropout Dropout(p=0.05, inplace=False)
intraCycleLayers.4.experts.8.act ReLU()
intraCycleLayers.4.experts.8.out_linear Linear(in_features=256, out_features=128, bias=True)
intraCycleLayers.4.experts.8.ln LayerNorm((128,), eps=1e-05, elementwise_affine=True)
intraCycleLayers.4.experts.9 MLPBlock(
  (in_linear): Linear(in_features=128, out_features=256, bias=True)
  (dropout): Dropout(p=0.05, inplace=False)
  (act): ReLU()
  (out_linear): Linear(in_features=256, out_features=128, bias=True)
  (ln): LayerNorm((128,), eps=1e-05, elementwise_affine=True)
)
intraCycleLayers.4.experts.9.in_linear Linear(in_features=128, out_features=256, bias=True)
intraCycleLayers.4.experts.9.dropout Dropout(p=0.05, inplace=False)
intraCycleLayers.4.experts.9.act ReLU()
intraCycleLayers.4.experts.9.out_linear Linear(in_features=256, out_features=128, bias=True)
intraCycleLayers.4.experts.9.ln LayerNorm((128,), eps=1e-05, elementwise_affine=True)
intraCycleLayers.4.general_experts ModuleList(
  (0): MLPBlock(
    (in_linear): Linear(in_features=128, out_features=256, bias=True)
    (dropout): Dropout(p=0.05, inplace=False)
    (act): ReLU()
    (out_linear): Linear(in_features=256, out_features=128, bias=True)
    (ln): LayerNorm((128,), eps=1e-05, elementwise_affine=True)
  )
)
intraCycleLayers.4.general_experts.0 MLPBlock(
  (in_linear): Linear(in_features=128, out_features=256, bias=True)
  (dropout): Dropout(p=0.05, inplace=False)
  (act): ReLU()
  (out_linear): Linear(in_features=256, out_features=128, bias=True)
  (ln): LayerNorm((128,), eps=1e-05, elementwise_affine=True)
)
intraCycleLayers.4.general_experts.0.in_linear Linear(in_features=128, out_features=256, bias=True)
intraCycleLayers.4.general_experts.0.dropout Dropout(p=0.05, inplace=False)
intraCycleLayers.4.general_experts.0.act ReLU()
intraCycleLayers.4.general_experts.0.out_linear Linear(in_features=256, out_features=128, bias=True)
intraCycleLayers.4.general_experts.0.ln LayerNorm((128,), eps=1e-05, elementwise_affine=True)
intraCycleLayers.4.gate PatternRouterMLP(
  (distribution_fit): Sequential(
    (0): Linear(in_features=3072, out_features=1536, bias=True)
    (1): LeakyReLU(negative_slope=0.01)
    (2): Linear(in_features=1536, out_features=10, bias=True)
  )
)
intraCycleLayers.4.gate.distribution_fit Sequential(
  (0): Linear(in_features=3072, out_features=1536, bias=True)
  (1): LeakyReLU(negative_slope=0.01)
  (2): Linear(in_features=1536, out_features=10, bias=True)
)
intraCycleLayers.4.gate.distribution_fit.0 Linear(in_features=3072, out_features=1536, bias=True)
intraCycleLayers.4.gate.distribution_fit.1 LeakyReLU(negative_slope=0.01)
intraCycleLayers.4.gate.distribution_fit.2 Linear(in_features=1536, out_features=10, bias=True)
intraCycleLayers.4.noise PatternRouterMLP(
  (distribution_fit): Sequential(
    (0): Linear(in_features=3072, out_features=1536, bias=True)
    (1): LeakyReLU(negative_slope=0.01)
    (2): Linear(in_features=1536, out_features=10, bias=True)
  )
)
intraCycleLayers.4.noise.distribution_fit Sequential(
  (0): Linear(in_features=3072, out_features=1536, bias=True)
  (1): LeakyReLU(negative_slope=0.01)
  (2): Linear(in_features=1536, out_features=10, bias=True)
)
intraCycleLayers.4.noise.distribution_fit.0 Linear(in_features=3072, out_features=1536, bias=True)
intraCycleLayers.4.noise.distribution_fit.1 LeakyReLU(negative_slope=0.01)
intraCycleLayers.4.noise.distribution_fit.2 Linear(in_features=1536, out_features=10, bias=True)
intraCycleLayers.4.softplus Softplus(beta=1.0, threshold=20.0)
intraCycleLayers.5 IntraCycleMoELayer(
  (experts): ModuleList(
    (0-9): 10 x MLPBlock(
      (in_linear): Linear(in_features=128, out_features=256, bias=True)
      (dropout): Dropout(p=0.05, inplace=False)
      (act): ReLU()
      (out_linear): Linear(in_features=256, out_features=128, bias=True)
      (ln): LayerNorm((128,), eps=1e-05, elementwise_affine=True)
    )
  )
  (general_experts): ModuleList(
    (0): MLPBlock(
      (in_linear): Linear(in_features=128, out_features=256, bias=True)
      (dropout): Dropout(p=0.05, inplace=False)
      (act): ReLU()
      (out_linear): Linear(in_features=256, out_features=128, bias=True)
      (ln): LayerNorm((128,), eps=1e-05, elementwise_affine=True)
    )
  )
  (gate): PatternRouterMLP(
    (distribution_fit): Sequential(
      (0): Linear(in_features=3072, out_features=1536, bias=True)
      (1): LeakyReLU(negative_slope=0.01)
      (2): Linear(in_features=1536, out_features=10, bias=True)
    )
  )
  (noise): PatternRouterMLP(
    (distribution_fit): Sequential(
      (0): Linear(in_features=3072, out_features=1536, bias=True)
      (1): LeakyReLU(negative_slope=0.01)
      (2): Linear(in_features=1536, out_features=10, bias=True)
    )
  )
  (softplus): Softplus(beta=1.0, threshold=20.0)
)
intraCycleLayers.5.experts ModuleList(
  (0-9): 10 x MLPBlock(
    (in_linear): Linear(in_features=128, out_features=256, bias=True)
    (dropout): Dropout(p=0.05, inplace=False)
    (act): ReLU()
    (out_linear): Linear(in_features=256, out_features=128, bias=True)
    (ln): LayerNorm((128,), eps=1e-05, elementwise_affine=True)
  )
)
intraCycleLayers.5.experts.0 MLPBlock(
  (in_linear): Linear(in_features=128, out_features=256, bias=True)
  (dropout): Dropout(p=0.05, inplace=False)
  (act): ReLU()
  (out_linear): Linear(in_features=256, out_features=128, bias=True)
  (ln): LayerNorm((128,), eps=1e-05, elementwise_affine=True)
)
intraCycleLayers.5.experts.0.in_linear Linear(in_features=128, out_features=256, bias=True)
intraCycleLayers.5.experts.0.dropout Dropout(p=0.05, inplace=False)
intraCycleLayers.5.experts.0.act ReLU()
intraCycleLayers.5.experts.0.out_linear Linear(in_features=256, out_features=128, bias=True)
intraCycleLayers.5.experts.0.ln LayerNorm((128,), eps=1e-05, elementwise_affine=True)
intraCycleLayers.5.experts.1 MLPBlock(
  (in_linear): Linear(in_features=128, out_features=256, bias=True)
  (dropout): Dropout(p=0.05, inplace=False)
  (act): ReLU()
  (out_linear): Linear(in_features=256, out_features=128, bias=True)
  (ln): LayerNorm((128,), eps=1e-05, elementwise_affine=True)
)
intraCycleLayers.5.experts.1.in_linear Linear(in_features=128, out_features=256, bias=True)
intraCycleLayers.5.experts.1.dropout Dropout(p=0.05, inplace=False)
intraCycleLayers.5.experts.1.act ReLU()
intraCycleLayers.5.experts.1.out_linear Linear(in_features=256, out_features=128, bias=True)
intraCycleLayers.5.experts.1.ln LayerNorm((128,), eps=1e-05, elementwise_affine=True)
intraCycleLayers.5.experts.2 MLPBlock(
  (in_linear): Linear(in_features=128, out_features=256, bias=True)
  (dropout): Dropout(p=0.05, inplace=False)
  (act): ReLU()
  (out_linear): Linear(in_features=256, out_features=128, bias=True)
  (ln): LayerNorm((128,), eps=1e-05, elementwise_affine=True)
)
intraCycleLayers.5.experts.2.in_linear Linear(in_features=128, out_features=256, bias=True)
intraCycleLayers.5.experts.2.dropout Dropout(p=0.05, inplace=False)
intraCycleLayers.5.experts.2.act ReLU()
intraCycleLayers.5.experts.2.out_linear Linear(in_features=256, out_features=128, bias=True)
intraCycleLayers.5.experts.2.ln LayerNorm((128,), eps=1e-05, elementwise_affine=True)
intraCycleLayers.5.experts.3 MLPBlock(
  (in_linear): Linear(in_features=128, out_features=256, bias=True)
  (dropout): Dropout(p=0.05, inplace=False)
  (act): ReLU()
  (out_linear): Linear(in_features=256, out_features=128, bias=True)
  (ln): LayerNorm((128,), eps=1e-05, elementwise_affine=True)
)
intraCycleLayers.5.experts.3.in_linear Linear(in_features=128, out_features=256, bias=True)
intraCycleLayers.5.experts.3.dropout Dropout(p=0.05, inplace=False)
intraCycleLayers.5.experts.3.act ReLU()
intraCycleLayers.5.experts.3.out_linear Linear(in_features=256, out_features=128, bias=True)
intraCycleLayers.5.experts.3.ln LayerNorm((128,), eps=1e-05, elementwise_affine=True)
intraCycleLayers.5.experts.4 MLPBlock(
  (in_linear): Linear(in_features=128, out_features=256, bias=True)
  (dropout): Dropout(p=0.05, inplace=False)
  (act): ReLU()
  (out_linear): Linear(in_features=256, out_features=128, bias=True)
  (ln): LayerNorm((128,), eps=1e-05, elementwise_affine=True)
)
intraCycleLayers.5.experts.4.in_linear Linear(in_features=128, out_features=256, bias=True)
intraCycleLayers.5.experts.4.dropout Dropout(p=0.05, inplace=False)
intraCycleLayers.5.experts.4.act ReLU()
intraCycleLayers.5.experts.4.out_linear Linear(in_features=256, out_features=128, bias=True)
intraCycleLayers.5.experts.4.ln LayerNorm((128,), eps=1e-05, elementwise_affine=True)
intraCycleLayers.5.experts.5 MLPBlock(
  (in_linear): Linear(in_features=128, out_features=256, bias=True)
  (dropout): Dropout(p=0.05, inplace=False)
  (act): ReLU()
  (out_linear): Linear(in_features=256, out_features=128, bias=True)
  (ln): LayerNorm((128,), eps=1e-05, elementwise_affine=True)
)
intraCycleLayers.5.experts.5.in_linear Linear(in_features=128, out_features=256, bias=True)
intraCycleLayers.5.experts.5.dropout Dropout(p=0.05, inplace=False)
intraCycleLayers.5.experts.5.act ReLU()
intraCycleLayers.5.experts.5.out_linear Linear(in_features=256, out_features=128, bias=True)
intraCycleLayers.5.experts.5.ln LayerNorm((128,), eps=1e-05, elementwise_affine=True)
intraCycleLayers.5.experts.6 MLPBlock(
  (in_linear): Linear(in_features=128, out_features=256, bias=True)
  (dropout): Dropout(p=0.05, inplace=False)
  (act): ReLU()
  (out_linear): Linear(in_features=256, out_features=128, bias=True)
  (ln): LayerNorm((128,), eps=1e-05, elementwise_affine=True)
)
intraCycleLayers.5.experts.6.in_linear Linear(in_features=128, out_features=256, bias=True)
intraCycleLayers.5.experts.6.dropout Dropout(p=0.05, inplace=False)
intraCycleLayers.5.experts.6.act ReLU()
intraCycleLayers.5.experts.6.out_linear Linear(in_features=256, out_features=128, bias=True)
intraCycleLayers.5.experts.6.ln LayerNorm((128,), eps=1e-05, elementwise_affine=True)
intraCycleLayers.5.experts.7 MLPBlock(
  (in_linear): Linear(in_features=128, out_features=256, bias=True)
  (dropout): Dropout(p=0.05, inplace=False)
  (act): ReLU()
  (out_linear): Linear(in_features=256, out_features=128, bias=True)
  (ln): LayerNorm((128,), eps=1e-05, elementwise_affine=True)
)
intraCycleLayers.5.experts.7.in_linear Linear(in_features=128, out_features=256, bias=True)
intraCycleLayers.5.experts.7.dropout Dropout(p=0.05, inplace=False)
intraCycleLayers.5.experts.7.act ReLU()
intraCycleLayers.5.experts.7.out_linear Linear(in_features=256, out_features=128, bias=True)
intraCycleLayers.5.experts.7.ln LayerNorm((128,), eps=1e-05, elementwise_affine=True)
intraCycleLayers.5.experts.8 MLPBlock(
  (in_linear): Linear(in_features=128, out_features=256, bias=True)
  (dropout): Dropout(p=0.05, inplace=False)
  (act): ReLU()
  (out_linear): Linear(in_features=256, out_features=128, bias=True)
  (ln): LayerNorm((128,), eps=1e-05, elementwise_affine=True)
)
intraCycleLayers.5.experts.8.in_linear Linear(in_features=128, out_features=256, bias=True)
intraCycleLayers.5.experts.8.dropout Dropout(p=0.05, inplace=False)
intraCycleLayers.5.experts.8.act ReLU()
intraCycleLayers.5.experts.8.out_linear Linear(in_features=256, out_features=128, bias=True)
intraCycleLayers.5.experts.8.ln LayerNorm((128,), eps=1e-05, elementwise_affine=True)
intraCycleLayers.5.experts.9 MLPBlock(
  (in_linear): Linear(in_features=128, out_features=256, bias=True)
  (dropout): Dropout(p=0.05, inplace=False)
  (act): ReLU()
  (out_linear): Linear(in_features=256, out_features=128, bias=True)
  (ln): LayerNorm((128,), eps=1e-05, elementwise_affine=True)
)
intraCycleLayers.5.experts.9.in_linear Linear(in_features=128, out_features=256, bias=True)
intraCycleLayers.5.experts.9.dropout Dropout(p=0.05, inplace=False)
intraCycleLayers.5.experts.9.act ReLU()
intraCycleLayers.5.experts.9.out_linear Linear(in_features=256, out_features=128, bias=True)
intraCycleLayers.5.experts.9.ln LayerNorm((128,), eps=1e-05, elementwise_affine=True)
intraCycleLayers.5.general_experts ModuleList(
  (0): MLPBlock(
    (in_linear): Linear(in_features=128, out_features=256, bias=True)
    (dropout): Dropout(p=0.05, inplace=False)
    (act): ReLU()
    (out_linear): Linear(in_features=256, out_features=128, bias=True)
    (ln): LayerNorm((128,), eps=1e-05, elementwise_affine=True)
  )
)
intraCycleLayers.5.general_experts.0 MLPBlock(
  (in_linear): Linear(in_features=128, out_features=256, bias=True)
  (dropout): Dropout(p=0.05, inplace=False)
  (act): ReLU()
  (out_linear): Linear(in_features=256, out_features=128, bias=True)
  (ln): LayerNorm((128,), eps=1e-05, elementwise_affine=True)
)
intraCycleLayers.5.general_experts.0.in_linear Linear(in_features=128, out_features=256, bias=True)
intraCycleLayers.5.general_experts.0.dropout Dropout(p=0.05, inplace=False)
intraCycleLayers.5.general_experts.0.act ReLU()
intraCycleLayers.5.general_experts.0.out_linear Linear(in_features=256, out_features=128, bias=True)
intraCycleLayers.5.general_experts.0.ln LayerNorm((128,), eps=1e-05, elementwise_affine=True)
intraCycleLayers.5.gate PatternRouterMLP(
  (distribution_fit): Sequential(
    (0): Linear(in_features=3072, out_features=1536, bias=True)
    (1): LeakyReLU(negative_slope=0.01)
    (2): Linear(in_features=1536, out_features=10, bias=True)
  )
)
intraCycleLayers.5.gate.distribution_fit Sequential(
  (0): Linear(in_features=3072, out_features=1536, bias=True)
  (1): LeakyReLU(negative_slope=0.01)
  (2): Linear(in_features=1536, out_features=10, bias=True)
)
intraCycleLayers.5.gate.distribution_fit.0 Linear(in_features=3072, out_features=1536, bias=True)
intraCycleLayers.5.gate.distribution_fit.1 LeakyReLU(negative_slope=0.01)
intraCycleLayers.5.gate.distribution_fit.2 Linear(in_features=1536, out_features=10, bias=True)
intraCycleLayers.5.noise PatternRouterMLP(
  (distribution_fit): Sequential(
    (0): Linear(in_features=3072, out_features=1536, bias=True)
    (1): LeakyReLU(negative_slope=0.01)
    (2): Linear(in_features=1536, out_features=10, bias=True)
  )
)
intraCycleLayers.5.noise.distribution_fit Sequential(
  (0): Linear(in_features=3072, out_features=1536, bias=True)
  (1): LeakyReLU(negative_slope=0.01)
  (2): Linear(in_features=1536, out_features=10, bias=True)
)
intraCycleLayers.5.noise.distribution_fit.0 Linear(in_features=3072, out_features=1536, bias=True)
intraCycleLayers.5.noise.distribution_fit.1 LeakyReLU(negative_slope=0.01)
intraCycleLayers.5.noise.distribution_fit.2 Linear(in_features=1536, out_features=10, bias=True)
intraCycleLayers.5.softplus Softplus(beta=1.0, threshold=20.0)
intraCycleLayers.6 IntraCycleMoELayer(
  (experts): ModuleList(
    (0-9): 10 x MLPBlock(
      (in_linear): Linear(in_features=128, out_features=256, bias=True)
      (dropout): Dropout(p=0.05, inplace=False)
      (act): ReLU()
      (out_linear): Linear(in_features=256, out_features=128, bias=True)
      (ln): LayerNorm((128,), eps=1e-05, elementwise_affine=True)
    )
  )
  (general_experts): ModuleList(
    (0): MLPBlock(
      (in_linear): Linear(in_features=128, out_features=256, bias=True)
      (dropout): Dropout(p=0.05, inplace=False)
      (act): ReLU()
      (out_linear): Linear(in_features=256, out_features=128, bias=True)
      (ln): LayerNorm((128,), eps=1e-05, elementwise_affine=True)
    )
  )
  (gate): PatternRouterMLP(
    (distribution_fit): Sequential(
      (0): Linear(in_features=3072, out_features=1536, bias=True)
      (1): LeakyReLU(negative_slope=0.01)
      (2): Linear(in_features=1536, out_features=10, bias=True)
    )
  )
  (noise): PatternRouterMLP(
    (distribution_fit): Sequential(
      (0): Linear(in_features=3072, out_features=1536, bias=True)
      (1): LeakyReLU(negative_slope=0.01)
      (2): Linear(in_features=1536, out_features=10, bias=True)
    )
  )
  (softplus): Softplus(beta=1.0, threshold=20.0)
)
intraCycleLayers.6.experts ModuleList(
  (0-9): 10 x MLPBlock(
    (in_linear): Linear(in_features=128, out_features=256, bias=True)
    (dropout): Dropout(p=0.05, inplace=False)
    (act): ReLU()
    (out_linear): Linear(in_features=256, out_features=128, bias=True)
    (ln): LayerNorm((128,), eps=1e-05, elementwise_affine=True)
  )
)
intraCycleLayers.6.experts.0 MLPBlock(
  (in_linear): Linear(in_features=128, out_features=256, bias=True)
  (dropout): Dropout(p=0.05, inplace=False)
  (act): ReLU()
  (out_linear): Linear(in_features=256, out_features=128, bias=True)
  (ln): LayerNorm((128,), eps=1e-05, elementwise_affine=True)
)
intraCycleLayers.6.experts.0.in_linear Linear(in_features=128, out_features=256, bias=True)
intraCycleLayers.6.experts.0.dropout Dropout(p=0.05, inplace=False)
intraCycleLayers.6.experts.0.act ReLU()
intraCycleLayers.6.experts.0.out_linear Linear(in_features=256, out_features=128, bias=True)
intraCycleLayers.6.experts.0.ln LayerNorm((128,), eps=1e-05, elementwise_affine=True)
intraCycleLayers.6.experts.1 MLPBlock(
  (in_linear): Linear(in_features=128, out_features=256, bias=True)
  (dropout): Dropout(p=0.05, inplace=False)
  (act): ReLU()
  (out_linear): Linear(in_features=256, out_features=128, bias=True)
  (ln): LayerNorm((128,), eps=1e-05, elementwise_affine=True)
)
intraCycleLayers.6.experts.1.in_linear Linear(in_features=128, out_features=256, bias=True)
intraCycleLayers.6.experts.1.dropout Dropout(p=0.05, inplace=False)
intraCycleLayers.6.experts.1.act ReLU()
intraCycleLayers.6.experts.1.out_linear Linear(in_features=256, out_features=128, bias=True)
intraCycleLayers.6.experts.1.ln LayerNorm((128,), eps=1e-05, elementwise_affine=True)
intraCycleLayers.6.experts.2 MLPBlock(
  (in_linear): Linear(in_features=128, out_features=256, bias=True)
  (dropout): Dropout(p=0.05, inplace=False)
  (act): ReLU()
  (out_linear): Linear(in_features=256, out_features=128, bias=True)
  (ln): LayerNorm((128,), eps=1e-05, elementwise_affine=True)
)
intraCycleLayers.6.experts.2.in_linear Linear(in_features=128, out_features=256, bias=True)
intraCycleLayers.6.experts.2.dropout Dropout(p=0.05, inplace=False)
intraCycleLayers.6.experts.2.act ReLU()
intraCycleLayers.6.experts.2.out_linear Linear(in_features=256, out_features=128, bias=True)
intraCycleLayers.6.experts.2.ln LayerNorm((128,), eps=1e-05, elementwise_affine=True)
intraCycleLayers.6.experts.3 MLPBlock(
  (in_linear): Linear(in_features=128, out_features=256, bias=True)
  (dropout): Dropout(p=0.05, inplace=False)
  (act): ReLU()
  (out_linear): Linear(in_features=256, out_features=128, bias=True)
  (ln): LayerNorm((128,), eps=1e-05, elementwise_affine=True)
)
intraCycleLayers.6.experts.3.in_linear Linear(in_features=128, out_features=256, bias=True)
intraCycleLayers.6.experts.3.dropout Dropout(p=0.05, inplace=False)
intraCycleLayers.6.experts.3.act ReLU()
intraCycleLayers.6.experts.3.out_linear Linear(in_features=256, out_features=128, bias=True)
intraCycleLayers.6.experts.3.ln LayerNorm((128,), eps=1e-05, elementwise_affine=True)
intraCycleLayers.6.experts.4 MLPBlock(
  (in_linear): Linear(in_features=128, out_features=256, bias=True)
  (dropout): Dropout(p=0.05, inplace=False)
  (act): ReLU()
  (out_linear): Linear(in_features=256, out_features=128, bias=True)
  (ln): LayerNorm((128,), eps=1e-05, elementwise_affine=True)
)
intraCycleLayers.6.experts.4.in_linear Linear(in_features=128, out_features=256, bias=True)
intraCycleLayers.6.experts.4.dropout Dropout(p=0.05, inplace=False)
intraCycleLayers.6.experts.4.act ReLU()
intraCycleLayers.6.experts.4.out_linear Linear(in_features=256, out_features=128, bias=True)
intraCycleLayers.6.experts.4.ln LayerNorm((128,), eps=1e-05, elementwise_affine=True)
intraCycleLayers.6.experts.5 MLPBlock(
  (in_linear): Linear(in_features=128, out_features=256, bias=True)
  (dropout): Dropout(p=0.05, inplace=False)
  (act): ReLU()
  (out_linear): Linear(in_features=256, out_features=128, bias=True)
  (ln): LayerNorm((128,), eps=1e-05, elementwise_affine=True)
)
intraCycleLayers.6.experts.5.in_linear Linear(in_features=128, out_features=256, bias=True)
intraCycleLayers.6.experts.5.dropout Dropout(p=0.05, inplace=False)
intraCycleLayers.6.experts.5.act ReLU()
intraCycleLayers.6.experts.5.out_linear Linear(in_features=256, out_features=128, bias=True)
intraCycleLayers.6.experts.5.ln LayerNorm((128,), eps=1e-05, elementwise_affine=True)
intraCycleLayers.6.experts.6 MLPBlock(
  (in_linear): Linear(in_features=128, out_features=256, bias=True)
  (dropout): Dropout(p=0.05, inplace=False)
  (act): ReLU()
  (out_linear): Linear(in_features=256, out_features=128, bias=True)
  (ln): LayerNorm((128,), eps=1e-05, elementwise_affine=True)
)
intraCycleLayers.6.experts.6.in_linear Linear(in_features=128, out_features=256, bias=True)
intraCycleLayers.6.experts.6.dropout Dropout(p=0.05, inplace=False)
intraCycleLayers.6.experts.6.act ReLU()
intraCycleLayers.6.experts.6.out_linear Linear(in_features=256, out_features=128, bias=True)
intraCycleLayers.6.experts.6.ln LayerNorm((128,), eps=1e-05, elementwise_affine=True)
intraCycleLayers.6.experts.7 MLPBlock(
  (in_linear): Linear(in_features=128, out_features=256, bias=True)
  (dropout): Dropout(p=0.05, inplace=False)
  (act): ReLU()
  (out_linear): Linear(in_features=256, out_features=128, bias=True)
  (ln): LayerNorm((128,), eps=1e-05, elementwise_affine=True)
)
intraCycleLayers.6.experts.7.in_linear Linear(in_features=128, out_features=256, bias=True)
intraCycleLayers.6.experts.7.dropout Dropout(p=0.05, inplace=False)
intraCycleLayers.6.experts.7.act ReLU()
intraCycleLayers.6.experts.7.out_linear Linear(in_features=256, out_features=128, bias=True)
intraCycleLayers.6.experts.7.ln LayerNorm((128,), eps=1e-05, elementwise_affine=True)
intraCycleLayers.6.experts.8 MLPBlock(
  (in_linear): Linear(in_features=128, out_features=256, bias=True)
  (dropout): Dropout(p=0.05, inplace=False)
  (act): ReLU()
  (out_linear): Linear(in_features=256, out_features=128, bias=True)
  (ln): LayerNorm((128,), eps=1e-05, elementwise_affine=True)
)
intraCycleLayers.6.experts.8.in_linear Linear(in_features=128, out_features=256, bias=True)
intraCycleLayers.6.experts.8.dropout Dropout(p=0.05, inplace=False)
intraCycleLayers.6.experts.8.act ReLU()
intraCycleLayers.6.experts.8.out_linear Linear(in_features=256, out_features=128, bias=True)
intraCycleLayers.6.experts.8.ln LayerNorm((128,), eps=1e-05, elementwise_affine=True)
intraCycleLayers.6.experts.9 MLPBlock(
  (in_linear): Linear(in_features=128, out_features=256, bias=True)
  (dropout): Dropout(p=0.05, inplace=False)
  (act): ReLU()
  (out_linear): Linear(in_features=256, out_features=128, bias=True)
  (ln): LayerNorm((128,), eps=1e-05, elementwise_affine=True)
)
intraCycleLayers.6.experts.9.in_linear Linear(in_features=128, out_features=256, bias=True)
intraCycleLayers.6.experts.9.dropout Dropout(p=0.05, inplace=False)
intraCycleLayers.6.experts.9.act ReLU()
intraCycleLayers.6.experts.9.out_linear Linear(in_features=256, out_features=128, bias=True)
intraCycleLayers.6.experts.9.ln LayerNorm((128,), eps=1e-05, elementwise_affine=True)
intraCycleLayers.6.general_experts ModuleList(
  (0): MLPBlock(
    (in_linear): Linear(in_features=128, out_features=256, bias=True)
    (dropout): Dropout(p=0.05, inplace=False)
    (act): ReLU()
    (out_linear): Linear(in_features=256, out_features=128, bias=True)
    (ln): LayerNorm((128,), eps=1e-05, elementwise_affine=True)
  )
)
intraCycleLayers.6.general_experts.0 MLPBlock(
  (in_linear): Linear(in_features=128, out_features=256, bias=True)
  (dropout): Dropout(p=0.05, inplace=False)
  (act): ReLU()
  (out_linear): Linear(in_features=256, out_features=128, bias=True)
  (ln): LayerNorm((128,), eps=1e-05, elementwise_affine=True)
)
intraCycleLayers.6.general_experts.0.in_linear Linear(in_features=128, out_features=256, bias=True)
intraCycleLayers.6.general_experts.0.dropout Dropout(p=0.05, inplace=False)
intraCycleLayers.6.general_experts.0.act ReLU()
intraCycleLayers.6.general_experts.0.out_linear Linear(in_features=256, out_features=128, bias=True)
intraCycleLayers.6.general_experts.0.ln LayerNorm((128,), eps=1e-05, elementwise_affine=True)
intraCycleLayers.6.gate PatternRouterMLP(
  (distribution_fit): Sequential(
    (0): Linear(in_features=3072, out_features=1536, bias=True)
    (1): LeakyReLU(negative_slope=0.01)
    (2): Linear(in_features=1536, out_features=10, bias=True)
  )
)
intraCycleLayers.6.gate.distribution_fit Sequential(
  (0): Linear(in_features=3072, out_features=1536, bias=True)
  (1): LeakyReLU(negative_slope=0.01)
  (2): Linear(in_features=1536, out_features=10, bias=True)
)
intraCycleLayers.6.gate.distribution_fit.0 Linear(in_features=3072, out_features=1536, bias=True)
intraCycleLayers.6.gate.distribution_fit.1 LeakyReLU(negative_slope=0.01)
intraCycleLayers.6.gate.distribution_fit.2 Linear(in_features=1536, out_features=10, bias=True)
intraCycleLayers.6.noise PatternRouterMLP(
  (distribution_fit): Sequential(
    (0): Linear(in_features=3072, out_features=1536, bias=True)
    (1): LeakyReLU(negative_slope=0.01)
    (2): Linear(in_features=1536, out_features=10, bias=True)
  )
)
intraCycleLayers.6.noise.distribution_fit Sequential(
  (0): Linear(in_features=3072, out_features=1536, bias=True)
  (1): LeakyReLU(negative_slope=0.01)
  (2): Linear(in_features=1536, out_features=10, bias=True)
)
intraCycleLayers.6.noise.distribution_fit.0 Linear(in_features=3072, out_features=1536, bias=True)
intraCycleLayers.6.noise.distribution_fit.1 LeakyReLU(negative_slope=0.01)
intraCycleLayers.6.noise.distribution_fit.2 Linear(in_features=1536, out_features=10, bias=True)
intraCycleLayers.6.softplus Softplus(beta=1.0, threshold=20.0)
intraCycleLayers.7 IntraCycleMoELayer(
  (experts): ModuleList(
    (0-9): 10 x MLPBlock(
      (in_linear): Linear(in_features=128, out_features=256, bias=True)
      (dropout): Dropout(p=0.05, inplace=False)
      (act): ReLU()
      (out_linear): Linear(in_features=256, out_features=128, bias=True)
      (ln): LayerNorm((128,), eps=1e-05, elementwise_affine=True)
    )
  )
  (general_experts): ModuleList(
    (0): MLPBlock(
      (in_linear): Linear(in_features=128, out_features=256, bias=True)
      (dropout): Dropout(p=0.05, inplace=False)
      (act): ReLU()
      (out_linear): Linear(in_features=256, out_features=128, bias=True)
      (ln): LayerNorm((128,), eps=1e-05, elementwise_affine=True)
    )
  )
  (gate): PatternRouterMLP(
    (distribution_fit): Sequential(
      (0): Linear(in_features=3072, out_features=1536, bias=True)
      (1): LeakyReLU(negative_slope=0.01)
      (2): Linear(in_features=1536, out_features=10, bias=True)
    )
  )
  (noise): PatternRouterMLP(
    (distribution_fit): Sequential(
      (0): Linear(in_features=3072, out_features=1536, bias=True)
      (1): LeakyReLU(negative_slope=0.01)
      (2): Linear(in_features=1536, out_features=10, bias=True)
    )
  )
  (softplus): Softplus(beta=1.0, threshold=20.0)
)
intraCycleLayers.7.experts ModuleList(
  (0-9): 10 x MLPBlock(
    (in_linear): Linear(in_features=128, out_features=256, bias=True)
    (dropout): Dropout(p=0.05, inplace=False)
    (act): ReLU()
    (out_linear): Linear(in_features=256, out_features=128, bias=True)
    (ln): LayerNorm((128,), eps=1e-05, elementwise_affine=True)
  )
)
intraCycleLayers.7.experts.0 MLPBlock(
  (in_linear): Linear(in_features=128, out_features=256, bias=True)
  (dropout): Dropout(p=0.05, inplace=False)
  (act): ReLU()
  (out_linear): Linear(in_features=256, out_features=128, bias=True)
  (ln): LayerNorm((128,), eps=1e-05, elementwise_affine=True)
)
intraCycleLayers.7.experts.0.in_linear Linear(in_features=128, out_features=256, bias=True)
intraCycleLayers.7.experts.0.dropout Dropout(p=0.05, inplace=False)
intraCycleLayers.7.experts.0.act ReLU()
intraCycleLayers.7.experts.0.out_linear Linear(in_features=256, out_features=128, bias=True)
intraCycleLayers.7.experts.0.ln LayerNorm((128,), eps=1e-05, elementwise_affine=True)
intraCycleLayers.7.experts.1 MLPBlock(
  (in_linear): Linear(in_features=128, out_features=256, bias=True)
  (dropout): Dropout(p=0.05, inplace=False)
  (act): ReLU()
  (out_linear): Linear(in_features=256, out_features=128, bias=True)
  (ln): LayerNorm((128,), eps=1e-05, elementwise_affine=True)
)
intraCycleLayers.7.experts.1.in_linear Linear(in_features=128, out_features=256, bias=True)
intraCycleLayers.7.experts.1.dropout Dropout(p=0.05, inplace=False)
intraCycleLayers.7.experts.1.act ReLU()
intraCycleLayers.7.experts.1.out_linear Linear(in_features=256, out_features=128, bias=True)
intraCycleLayers.7.experts.1.ln LayerNorm((128,), eps=1e-05, elementwise_affine=True)
intraCycleLayers.7.experts.2 MLPBlock(
  (in_linear): Linear(in_features=128, out_features=256, bias=True)
  (dropout): Dropout(p=0.05, inplace=False)
  (act): ReLU()
  (out_linear): Linear(in_features=256, out_features=128, bias=True)
  (ln): LayerNorm((128,), eps=1e-05, elementwise_affine=True)
)
intraCycleLayers.7.experts.2.in_linear Linear(in_features=128, out_features=256, bias=True)
intraCycleLayers.7.experts.2.dropout Dropout(p=0.05, inplace=False)
intraCycleLayers.7.experts.2.act ReLU()
intraCycleLayers.7.experts.2.out_linear Linear(in_features=256, out_features=128, bias=True)
intraCycleLayers.7.experts.2.ln LayerNorm((128,), eps=1e-05, elementwise_affine=True)
intraCycleLayers.7.experts.3 MLPBlock(
  (in_linear): Linear(in_features=128, out_features=256, bias=True)
  (dropout): Dropout(p=0.05, inplace=False)
  (act): ReLU()
  (out_linear): Linear(in_features=256, out_features=128, bias=True)
  (ln): LayerNorm((128,), eps=1e-05, elementwise_affine=True)
)
intraCycleLayers.7.experts.3.in_linear Linear(in_features=128, out_features=256, bias=True)
intraCycleLayers.7.experts.3.dropout Dropout(p=0.05, inplace=False)
intraCycleLayers.7.experts.3.act ReLU()
intraCycleLayers.7.experts.3.out_linear Linear(in_features=256, out_features=128, bias=True)
intraCycleLayers.7.experts.3.ln LayerNorm((128,), eps=1e-05, elementwise_affine=True)
intraCycleLayers.7.experts.4 MLPBlock(
  (in_linear): Linear(in_features=128, out_features=256, bias=True)
  (dropout): Dropout(p=0.05, inplace=False)
  (act): ReLU()
  (out_linear): Linear(in_features=256, out_features=128, bias=True)
  (ln): LayerNorm((128,), eps=1e-05, elementwise_affine=True)
)
intraCycleLayers.7.experts.4.in_linear Linear(in_features=128, out_features=256, bias=True)
intraCycleLayers.7.experts.4.dropout Dropout(p=0.05, inplace=False)
intraCycleLayers.7.experts.4.act ReLU()
intraCycleLayers.7.experts.4.out_linear Linear(in_features=256, out_features=128, bias=True)
intraCycleLayers.7.experts.4.ln LayerNorm((128,), eps=1e-05, elementwise_affine=True)
intraCycleLayers.7.experts.5 MLPBlock(
  (in_linear): Linear(in_features=128, out_features=256, bias=True)
  (dropout): Dropout(p=0.05, inplace=False)
  (act): ReLU()
  (out_linear): Linear(in_features=256, out_features=128, bias=True)
  (ln): LayerNorm((128,), eps=1e-05, elementwise_affine=True)
)
intraCycleLayers.7.experts.5.in_linear Linear(in_features=128, out_features=256, bias=True)
intraCycleLayers.7.experts.5.dropout Dropout(p=0.05, inplace=False)
intraCycleLayers.7.experts.5.act ReLU()
intraCycleLayers.7.experts.5.out_linear Linear(in_features=256, out_features=128, bias=True)
intraCycleLayers.7.experts.5.ln LayerNorm((128,), eps=1e-05, elementwise_affine=True)
intraCycleLayers.7.experts.6 MLPBlock(
  (in_linear): Linear(in_features=128, out_features=256, bias=True)
  (dropout): Dropout(p=0.05, inplace=False)
  (act): ReLU()
  (out_linear): Linear(in_features=256, out_features=128, bias=True)
  (ln): LayerNorm((128,), eps=1e-05, elementwise_affine=True)
)
intraCycleLayers.7.experts.6.in_linear Linear(in_features=128, out_features=256, bias=True)
intraCycleLayers.7.experts.6.dropout Dropout(p=0.05, inplace=False)
intraCycleLayers.7.experts.6.act ReLU()
intraCycleLayers.7.experts.6.out_linear Linear(in_features=256, out_features=128, bias=True)
intraCycleLayers.7.experts.6.ln LayerNorm((128,), eps=1e-05, elementwise_affine=True)
intraCycleLayers.7.experts.7 MLPBlock(
  (in_linear): Linear(in_features=128, out_features=256, bias=True)
  (dropout): Dropout(p=0.05, inplace=False)
  (act): ReLU()
  (out_linear): Linear(in_features=256, out_features=128, bias=True)
  (ln): LayerNorm((128,), eps=1e-05, elementwise_affine=True)
)
intraCycleLayers.7.experts.7.in_linear Linear(in_features=128, out_features=256, bias=True)
intraCycleLayers.7.experts.7.dropout Dropout(p=0.05, inplace=False)
intraCycleLayers.7.experts.7.act ReLU()
intraCycleLayers.7.experts.7.out_linear Linear(in_features=256, out_features=128, bias=True)
intraCycleLayers.7.experts.7.ln LayerNorm((128,), eps=1e-05, elementwise_affine=True)
intraCycleLayers.7.experts.8 MLPBlock(
  (in_linear): Linear(in_features=128, out_features=256, bias=True)
  (dropout): Dropout(p=0.05, inplace=False)
  (act): ReLU()
  (out_linear): Linear(in_features=256, out_features=128, bias=True)
  (ln): LayerNorm((128,), eps=1e-05, elementwise_affine=True)
)
intraCycleLayers.7.experts.8.in_linear Linear(in_features=128, out_features=256, bias=True)
intraCycleLayers.7.experts.8.dropout Dropout(p=0.05, inplace=False)
intraCycleLayers.7.experts.8.act ReLU()
intraCycleLayers.7.experts.8.out_linear Linear(in_features=256, out_features=128, bias=True)
intraCycleLayers.7.experts.8.ln LayerNorm((128,), eps=1e-05, elementwise_affine=True)
intraCycleLayers.7.experts.9 MLPBlock(
  (in_linear): Linear(in_features=128, out_features=256, bias=True)
  (dropout): Dropout(p=0.05, inplace=False)
  (act): ReLU()
  (out_linear): Linear(in_features=256, out_features=128, bias=True)
  (ln): LayerNorm((128,), eps=1e-05, elementwise_affine=True)
)
intraCycleLayers.7.experts.9.in_linear Linear(in_features=128, out_features=256, bias=True)
intraCycleLayers.7.experts.9.dropout Dropout(p=0.05, inplace=False)
intraCycleLayers.7.experts.9.act ReLU()
intraCycleLayers.7.experts.9.out_linear Linear(in_features=256, out_features=128, bias=True)
intraCycleLayers.7.experts.9.ln LayerNorm((128,), eps=1e-05, elementwise_affine=True)
intraCycleLayers.7.general_experts ModuleList(
  (0): MLPBlock(
    (in_linear): Linear(in_features=128, out_features=256, bias=True)
    (dropout): Dropout(p=0.05, inplace=False)
    (act): ReLU()
    (out_linear): Linear(in_features=256, out_features=128, bias=True)
    (ln): LayerNorm((128,), eps=1e-05, elementwise_affine=True)
  )
)
intraCycleLayers.7.general_experts.0 MLPBlock(
  (in_linear): Linear(in_features=128, out_features=256, bias=True)
  (dropout): Dropout(p=0.05, inplace=False)
  (act): ReLU()
  (out_linear): Linear(in_features=256, out_features=128, bias=True)
  (ln): LayerNorm((128,), eps=1e-05, elementwise_affine=True)
)
intraCycleLayers.7.general_experts.0.in_linear Linear(in_features=128, out_features=256, bias=True)
intraCycleLayers.7.general_experts.0.dropout Dropout(p=0.05, inplace=False)
intraCycleLayers.7.general_experts.0.act ReLU()
intraCycleLayers.7.general_experts.0.out_linear Linear(in_features=256, out_features=128, bias=True)
intraCycleLayers.7.general_experts.0.ln LayerNorm((128,), eps=1e-05, elementwise_affine=True)
intraCycleLayers.7.gate PatternRouterMLP(
  (distribution_fit): Sequential(
    (0): Linear(in_features=3072, out_features=1536, bias=True)
    (1): LeakyReLU(negative_slope=0.01)
    (2): Linear(in_features=1536, out_features=10, bias=True)
  )
)
intraCycleLayers.7.gate.distribution_fit Sequential(
  (0): Linear(in_features=3072, out_features=1536, bias=True)
  (1): LeakyReLU(negative_slope=0.01)
  (2): Linear(in_features=1536, out_features=10, bias=True)
)
intraCycleLayers.7.gate.distribution_fit.0 Linear(in_features=3072, out_features=1536, bias=True)
intraCycleLayers.7.gate.distribution_fit.1 LeakyReLU(negative_slope=0.01)
intraCycleLayers.7.gate.distribution_fit.2 Linear(in_features=1536, out_features=10, bias=True)
intraCycleLayers.7.noise PatternRouterMLP(
  (distribution_fit): Sequential(
    (0): Linear(in_features=3072, out_features=1536, bias=True)
    (1): LeakyReLU(negative_slope=0.01)
    (2): Linear(in_features=1536, out_features=10, bias=True)
  )
)
intraCycleLayers.7.noise.distribution_fit Sequential(
  (0): Linear(in_features=3072, out_features=1536, bias=True)
  (1): LeakyReLU(negative_slope=0.01)
  (2): Linear(in_features=1536, out_features=10, bias=True)
)
intraCycleLayers.7.noise.distribution_fit.0 Linear(in_features=3072, out_features=1536, bias=True)
intraCycleLayers.7.noise.distribution_fit.1 LeakyReLU(negative_slope=0.01)
intraCycleLayers.7.noise.distribution_fit.2 Linear(in_features=1536, out_features=10, bias=True)
intraCycleLayers.7.softplus Softplus(beta=1.0, threshold=20.0)
intraCycleLayers.8 IntraCycleMoELayer(
  (experts): ModuleList(
    (0-9): 10 x MLPBlock(
      (in_linear): Linear(in_features=128, out_features=256, bias=True)
      (dropout): Dropout(p=0.05, inplace=False)
      (act): ReLU()
      (out_linear): Linear(in_features=256, out_features=128, bias=True)
      (ln): LayerNorm((128,), eps=1e-05, elementwise_affine=True)
    )
  )
  (general_experts): ModuleList(
    (0): MLPBlock(
      (in_linear): Linear(in_features=128, out_features=256, bias=True)
      (dropout): Dropout(p=0.05, inplace=False)
      (act): ReLU()
      (out_linear): Linear(in_features=256, out_features=128, bias=True)
      (ln): LayerNorm((128,), eps=1e-05, elementwise_affine=True)
    )
  )
  (gate): PatternRouterMLP(
    (distribution_fit): Sequential(
      (0): Linear(in_features=3072, out_features=1536, bias=True)
      (1): LeakyReLU(negative_slope=0.01)
      (2): Linear(in_features=1536, out_features=10, bias=True)
    )
  )
  (noise): PatternRouterMLP(
    (distribution_fit): Sequential(
      (0): Linear(in_features=3072, out_features=1536, bias=True)
      (1): LeakyReLU(negative_slope=0.01)
      (2): Linear(in_features=1536, out_features=10, bias=True)
    )
  )
  (softplus): Softplus(beta=1.0, threshold=20.0)
)
intraCycleLayers.8.experts ModuleList(
  (0-9): 10 x MLPBlock(
    (in_linear): Linear(in_features=128, out_features=256, bias=True)
    (dropout): Dropout(p=0.05, inplace=False)
    (act): ReLU()
    (out_linear): Linear(in_features=256, out_features=128, bias=True)
    (ln): LayerNorm((128,), eps=1e-05, elementwise_affine=True)
  )
)
intraCycleLayers.8.experts.0 MLPBlock(
  (in_linear): Linear(in_features=128, out_features=256, bias=True)
  (dropout): Dropout(p=0.05, inplace=False)
  (act): ReLU()
  (out_linear): Linear(in_features=256, out_features=128, bias=True)
  (ln): LayerNorm((128,), eps=1e-05, elementwise_affine=True)
)
intraCycleLayers.8.experts.0.in_linear Linear(in_features=128, out_features=256, bias=True)
intraCycleLayers.8.experts.0.dropout Dropout(p=0.05, inplace=False)
intraCycleLayers.8.experts.0.act ReLU()
intraCycleLayers.8.experts.0.out_linear Linear(in_features=256, out_features=128, bias=True)
intraCycleLayers.8.experts.0.ln LayerNorm((128,), eps=1e-05, elementwise_affine=True)
intraCycleLayers.8.experts.1 MLPBlock(
  (in_linear): Linear(in_features=128, out_features=256, bias=True)
  (dropout): Dropout(p=0.05, inplace=False)
  (act): ReLU()
  (out_linear): Linear(in_features=256, out_features=128, bias=True)
  (ln): LayerNorm((128,), eps=1e-05, elementwise_affine=True)
)
intraCycleLayers.8.experts.1.in_linear Linear(in_features=128, out_features=256, bias=True)
intraCycleLayers.8.experts.1.dropout Dropout(p=0.05, inplace=False)
intraCycleLayers.8.experts.1.act ReLU()
intraCycleLayers.8.experts.1.out_linear Linear(in_features=256, out_features=128, bias=True)
intraCycleLayers.8.experts.1.ln LayerNorm((128,), eps=1e-05, elementwise_affine=True)
intraCycleLayers.8.experts.2 MLPBlock(
  (in_linear): Linear(in_features=128, out_features=256, bias=True)
  (dropout): Dropout(p=0.05, inplace=False)
  (act): ReLU()
  (out_linear): Linear(in_features=256, out_features=128, bias=True)
  (ln): LayerNorm((128,), eps=1e-05, elementwise_affine=True)
)
intraCycleLayers.8.experts.2.in_linear Linear(in_features=128, out_features=256, bias=True)
intraCycleLayers.8.experts.2.dropout Dropout(p=0.05, inplace=False)
intraCycleLayers.8.experts.2.act ReLU()
intraCycleLayers.8.experts.2.out_linear Linear(in_features=256, out_features=128, bias=True)
intraCycleLayers.8.experts.2.ln LayerNorm((128,), eps=1e-05, elementwise_affine=True)
intraCycleLayers.8.experts.3 MLPBlock(
  (in_linear): Linear(in_features=128, out_features=256, bias=True)
  (dropout): Dropout(p=0.05, inplace=False)
  (act): ReLU()
  (out_linear): Linear(in_features=256, out_features=128, bias=True)
  (ln): LayerNorm((128,), eps=1e-05, elementwise_affine=True)
)
intraCycleLayers.8.experts.3.in_linear Linear(in_features=128, out_features=256, bias=True)
intraCycleLayers.8.experts.3.dropout Dropout(p=0.05, inplace=False)
intraCycleLayers.8.experts.3.act ReLU()
intraCycleLayers.8.experts.3.out_linear Linear(in_features=256, out_features=128, bias=True)
intraCycleLayers.8.experts.3.ln LayerNorm((128,), eps=1e-05, elementwise_affine=True)
intraCycleLayers.8.experts.4 MLPBlock(
  (in_linear): Linear(in_features=128, out_features=256, bias=True)
  (dropout): Dropout(p=0.05, inplace=False)
  (act): ReLU()
  (out_linear): Linear(in_features=256, out_features=128, bias=True)
  (ln): LayerNorm((128,), eps=1e-05, elementwise_affine=True)
)
intraCycleLayers.8.experts.4.in_linear Linear(in_features=128, out_features=256, bias=True)
intraCycleLayers.8.experts.4.dropout Dropout(p=0.05, inplace=False)
intraCycleLayers.8.experts.4.act ReLU()
intraCycleLayers.8.experts.4.out_linear Linear(in_features=256, out_features=128, bias=True)
intraCycleLayers.8.experts.4.ln LayerNorm((128,), eps=1e-05, elementwise_affine=True)
intraCycleLayers.8.experts.5 MLPBlock(
  (in_linear): Linear(in_features=128, out_features=256, bias=True)
  (dropout): Dropout(p=0.05, inplace=False)
  (act): ReLU()
  (out_linear): Linear(in_features=256, out_features=128, bias=True)
  (ln): LayerNorm((128,), eps=1e-05, elementwise_affine=True)
)
intraCycleLayers.8.experts.5.in_linear Linear(in_features=128, out_features=256, bias=True)
intraCycleLayers.8.experts.5.dropout Dropout(p=0.05, inplace=False)
intraCycleLayers.8.experts.5.act ReLU()
intraCycleLayers.8.experts.5.out_linear Linear(in_features=256, out_features=128, bias=True)
intraCycleLayers.8.experts.5.ln LayerNorm((128,), eps=1e-05, elementwise_affine=True)
intraCycleLayers.8.experts.6 MLPBlock(
  (in_linear): Linear(in_features=128, out_features=256, bias=True)
  (dropout): Dropout(p=0.05, inplace=False)
  (act): ReLU()
  (out_linear): Linear(in_features=256, out_features=128, bias=True)
  (ln): LayerNorm((128,), eps=1e-05, elementwise_affine=True)
)
intraCycleLayers.8.experts.6.in_linear Linear(in_features=128, out_features=256, bias=True)
intraCycleLayers.8.experts.6.dropout Dropout(p=0.05, inplace=False)
intraCycleLayers.8.experts.6.act ReLU()
intraCycleLayers.8.experts.6.out_linear Linear(in_features=256, out_features=128, bias=True)
intraCycleLayers.8.experts.6.ln LayerNorm((128,), eps=1e-05, elementwise_affine=True)
intraCycleLayers.8.experts.7 MLPBlock(
  (in_linear): Linear(in_features=128, out_features=256, bias=True)
  (dropout): Dropout(p=0.05, inplace=False)
  (act): ReLU()
  (out_linear): Linear(in_features=256, out_features=128, bias=True)
  (ln): LayerNorm((128,), eps=1e-05, elementwise_affine=True)
)
intraCycleLayers.8.experts.7.in_linear Linear(in_features=128, out_features=256, bias=True)
intraCycleLayers.8.experts.7.dropout Dropout(p=0.05, inplace=False)
intraCycleLayers.8.experts.7.act ReLU()
intraCycleLayers.8.experts.7.out_linear Linear(in_features=256, out_features=128, bias=True)
intraCycleLayers.8.experts.7.ln LayerNorm((128,), eps=1e-05, elementwise_affine=True)
intraCycleLayers.8.experts.8 MLPBlock(
  (in_linear): Linear(in_features=128, out_features=256, bias=True)
  (dropout): Dropout(p=0.05, inplace=False)
  (act): ReLU()
  (out_linear): Linear(in_features=256, out_features=128, bias=True)
  (ln): LayerNorm((128,), eps=1e-05, elementwise_affine=True)
)
intraCycleLayers.8.experts.8.in_linear Linear(in_features=128, out_features=256, bias=True)
intraCycleLayers.8.experts.8.dropout Dropout(p=0.05, inplace=False)
intraCycleLayers.8.experts.8.act ReLU()
intraCycleLayers.8.experts.8.out_linear Linear(in_features=256, out_features=128, bias=True)
intraCycleLayers.8.experts.8.ln LayerNorm((128,), eps=1e-05, elementwise_affine=True)
intraCycleLayers.8.experts.9 MLPBlock(
  (in_linear): Linear(in_features=128, out_features=256, bias=True)
  (dropout): Dropout(p=0.05, inplace=False)
  (act): ReLU()
  (out_linear): Linear(in_features=256, out_features=128, bias=True)
  (ln): LayerNorm((128,), eps=1e-05, elementwise_affine=True)
)
intraCycleLayers.8.experts.9.in_linear Linear(in_features=128, out_features=256, bias=True)
intraCycleLayers.8.experts.9.dropout Dropout(p=0.05, inplace=False)
intraCycleLayers.8.experts.9.act ReLU()
intraCycleLayers.8.experts.9.out_linear Linear(in_features=256, out_features=128, bias=True)
intraCycleLayers.8.experts.9.ln LayerNorm((128,), eps=1e-05, elementwise_affine=True)
intraCycleLayers.8.general_experts ModuleList(
  (0): MLPBlock(
    (in_linear): Linear(in_features=128, out_features=256, bias=True)
    (dropout): Dropout(p=0.05, inplace=False)
    (act): ReLU()
    (out_linear): Linear(in_features=256, out_features=128, bias=True)
    (ln): LayerNorm((128,), eps=1e-05, elementwise_affine=True)
  )
)
intraCycleLayers.8.general_experts.0 MLPBlock(
  (in_linear): Linear(in_features=128, out_features=256, bias=True)
  (dropout): Dropout(p=0.05, inplace=False)
  (act): ReLU()
  (out_linear): Linear(in_features=256, out_features=128, bias=True)
  (ln): LayerNorm((128,), eps=1e-05, elementwise_affine=True)
)
intraCycleLayers.8.general_experts.0.in_linear Linear(in_features=128, out_features=256, bias=True)
intraCycleLayers.8.general_experts.0.dropout Dropout(p=0.05, inplace=False)
intraCycleLayers.8.general_experts.0.act ReLU()
intraCycleLayers.8.general_experts.0.out_linear Linear(in_features=256, out_features=128, bias=True)
intraCycleLayers.8.general_experts.0.ln LayerNorm((128,), eps=1e-05, elementwise_affine=True)
intraCycleLayers.8.gate PatternRouterMLP(
  (distribution_fit): Sequential(
    (0): Linear(in_features=3072, out_features=1536, bias=True)
    (1): LeakyReLU(negative_slope=0.01)
    (2): Linear(in_features=1536, out_features=10, bias=True)
  )
)
intraCycleLayers.8.gate.distribution_fit Sequential(
  (0): Linear(in_features=3072, out_features=1536, bias=True)
  (1): LeakyReLU(negative_slope=0.01)
  (2): Linear(in_features=1536, out_features=10, bias=True)
)
intraCycleLayers.8.gate.distribution_fit.0 Linear(in_features=3072, out_features=1536, bias=True)
intraCycleLayers.8.gate.distribution_fit.1 LeakyReLU(negative_slope=0.01)
intraCycleLayers.8.gate.distribution_fit.2 Linear(in_features=1536, out_features=10, bias=True)
intraCycleLayers.8.noise PatternRouterMLP(
  (distribution_fit): Sequential(
    (0): Linear(in_features=3072, out_features=1536, bias=True)
    (1): LeakyReLU(negative_slope=0.01)
    (2): Linear(in_features=1536, out_features=10, bias=True)
  )
)
intraCycleLayers.8.noise.distribution_fit Sequential(
  (0): Linear(in_features=3072, out_features=1536, bias=True)
  (1): LeakyReLU(negative_slope=0.01)
  (2): Linear(in_features=1536, out_features=10, bias=True)
)
intraCycleLayers.8.noise.distribution_fit.0 Linear(in_features=3072, out_features=1536, bias=True)
intraCycleLayers.8.noise.distribution_fit.1 LeakyReLU(negative_slope=0.01)
intraCycleLayers.8.noise.distribution_fit.2 Linear(in_features=1536, out_features=10, bias=True)
intraCycleLayers.8.softplus Softplus(beta=1.0, threshold=20.0)
intraCycleLayers.9 IntraCycleMoELayer(
  (experts): ModuleList(
    (0-9): 10 x MLPBlock(
      (in_linear): Linear(in_features=128, out_features=256, bias=True)
      (dropout): Dropout(p=0.05, inplace=False)
      (act): ReLU()
      (out_linear): Linear(in_features=256, out_features=128, bias=True)
      (ln): LayerNorm((128,), eps=1e-05, elementwise_affine=True)
    )
  )
  (general_experts): ModuleList(
    (0): MLPBlock(
      (in_linear): Linear(in_features=128, out_features=256, bias=True)
      (dropout): Dropout(p=0.05, inplace=False)
      (act): ReLU()
      (out_linear): Linear(in_features=256, out_features=128, bias=True)
      (ln): LayerNorm((128,), eps=1e-05, elementwise_affine=True)
    )
  )
  (gate): PatternRouterMLP(
    (distribution_fit): Sequential(
      (0): Linear(in_features=3072, out_features=1536, bias=True)
      (1): LeakyReLU(negative_slope=0.01)
      (2): Linear(in_features=1536, out_features=10, bias=True)
    )
  )
  (noise): PatternRouterMLP(
    (distribution_fit): Sequential(
      (0): Linear(in_features=3072, out_features=1536, bias=True)
      (1): LeakyReLU(negative_slope=0.01)
      (2): Linear(in_features=1536, out_features=10, bias=True)
    )
  )
  (softplus): Softplus(beta=1.0, threshold=20.0)
)
intraCycleLayers.9.experts ModuleList(
  (0-9): 10 x MLPBlock(
    (in_linear): Linear(in_features=128, out_features=256, bias=True)
    (dropout): Dropout(p=0.05, inplace=False)
    (act): ReLU()
    (out_linear): Linear(in_features=256, out_features=128, bias=True)
    (ln): LayerNorm((128,), eps=1e-05, elementwise_affine=True)
  )
)
intraCycleLayers.9.experts.0 MLPBlock(
  (in_linear): Linear(in_features=128, out_features=256, bias=True)
  (dropout): Dropout(p=0.05, inplace=False)
  (act): ReLU()
  (out_linear): Linear(in_features=256, out_features=128, bias=True)
  (ln): LayerNorm((128,), eps=1e-05, elementwise_affine=True)
)
intraCycleLayers.9.experts.0.in_linear Linear(in_features=128, out_features=256, bias=True)
intraCycleLayers.9.experts.0.dropout Dropout(p=0.05, inplace=False)
intraCycleLayers.9.experts.0.act ReLU()
intraCycleLayers.9.experts.0.out_linear Linear(in_features=256, out_features=128, bias=True)
intraCycleLayers.9.experts.0.ln LayerNorm((128,), eps=1e-05, elementwise_affine=True)
intraCycleLayers.9.experts.1 MLPBlock(
  (in_linear): Linear(in_features=128, out_features=256, bias=True)
  (dropout): Dropout(p=0.05, inplace=False)
  (act): ReLU()
  (out_linear): Linear(in_features=256, out_features=128, bias=True)
  (ln): LayerNorm((128,), eps=1e-05, elementwise_affine=True)
)
intraCycleLayers.9.experts.1.in_linear Linear(in_features=128, out_features=256, bias=True)
intraCycleLayers.9.experts.1.dropout Dropout(p=0.05, inplace=False)
intraCycleLayers.9.experts.1.act ReLU()
intraCycleLayers.9.experts.1.out_linear Linear(in_features=256, out_features=128, bias=True)
intraCycleLayers.9.experts.1.ln LayerNorm((128,), eps=1e-05, elementwise_affine=True)
intraCycleLayers.9.experts.2 MLPBlock(
  (in_linear): Linear(in_features=128, out_features=256, bias=True)
  (dropout): Dropout(p=0.05, inplace=False)
  (act): ReLU()
  (out_linear): Linear(in_features=256, out_features=128, bias=True)
  (ln): LayerNorm((128,), eps=1e-05, elementwise_affine=True)
)
intraCycleLayers.9.experts.2.in_linear Linear(in_features=128, out_features=256, bias=True)
intraCycleLayers.9.experts.2.dropout Dropout(p=0.05, inplace=False)
intraCycleLayers.9.experts.2.act ReLU()
intraCycleLayers.9.experts.2.out_linear Linear(in_features=256, out_features=128, bias=True)
intraCycleLayers.9.experts.2.ln LayerNorm((128,), eps=1e-05, elementwise_affine=True)
intraCycleLayers.9.experts.3 MLPBlock(
  (in_linear): Linear(in_features=128, out_features=256, bias=True)
  (dropout): Dropout(p=0.05, inplace=False)
  (act): ReLU()
  (out_linear): Linear(in_features=256, out_features=128, bias=True)
  (ln): LayerNorm((128,), eps=1e-05, elementwise_affine=True)
)
intraCycleLayers.9.experts.3.in_linear Linear(in_features=128, out_features=256, bias=True)
intraCycleLayers.9.experts.3.dropout Dropout(p=0.05, inplace=False)
intraCycleLayers.9.experts.3.act ReLU()
intraCycleLayers.9.experts.3.out_linear Linear(in_features=256, out_features=128, bias=True)
intraCycleLayers.9.experts.3.ln LayerNorm((128,), eps=1e-05, elementwise_affine=True)
intraCycleLayers.9.experts.4 MLPBlock(
  (in_linear): Linear(in_features=128, out_features=256, bias=True)
  (dropout): Dropout(p=0.05, inplace=False)
  (act): ReLU()
  (out_linear): Linear(in_features=256, out_features=128, bias=True)
  (ln): LayerNorm((128,), eps=1e-05, elementwise_affine=True)
)
intraCycleLayers.9.experts.4.in_linear Linear(in_features=128, out_features=256, bias=True)
intraCycleLayers.9.experts.4.dropout Dropout(p=0.05, inplace=False)
intraCycleLayers.9.experts.4.act ReLU()
intraCycleLayers.9.experts.4.out_linear Linear(in_features=256, out_features=128, bias=True)
intraCycleLayers.9.experts.4.ln LayerNorm((128,), eps=1e-05, elementwise_affine=True)
intraCycleLayers.9.experts.5 MLPBlock(
  (in_linear): Linear(in_features=128, out_features=256, bias=True)
  (dropout): Dropout(p=0.05, inplace=False)
  (act): ReLU()
  (out_linear): Linear(in_features=256, out_features=128, bias=True)
  (ln): LayerNorm((128,), eps=1e-05, elementwise_affine=True)
)
intraCycleLayers.9.experts.5.in_linear Linear(in_features=128, out_features=256, bias=True)
intraCycleLayers.9.experts.5.dropout Dropout(p=0.05, inplace=False)
intraCycleLayers.9.experts.5.act ReLU()
intraCycleLayers.9.experts.5.out_linear Linear(in_features=256, out_features=128, bias=True)
intraCycleLayers.9.experts.5.ln LayerNorm((128,), eps=1e-05, elementwise_affine=True)
intraCycleLayers.9.experts.6 MLPBlock(
  (in_linear): Linear(in_features=128, out_features=256, bias=True)
  (dropout): Dropout(p=0.05, inplace=False)
  (act): ReLU()
  (out_linear): Linear(in_features=256, out_features=128, bias=True)
  (ln): LayerNorm((128,), eps=1e-05, elementwise_affine=True)
)
intraCycleLayers.9.experts.6.in_linear Linear(in_features=128, out_features=256, bias=True)
intraCycleLayers.9.experts.6.dropout Dropout(p=0.05, inplace=False)
intraCycleLayers.9.experts.6.act ReLU()
intraCycleLayers.9.experts.6.out_linear Linear(in_features=256, out_features=128, bias=True)
intraCycleLayers.9.experts.6.ln LayerNorm((128,), eps=1e-05, elementwise_affine=True)
intraCycleLayers.9.experts.7 MLPBlock(
  (in_linear): Linear(in_features=128, out_features=256, bias=True)
  (dropout): Dropout(p=0.05, inplace=False)
  (act): ReLU()
  (out_linear): Linear(in_features=256, out_features=128, bias=True)
  (ln): LayerNorm((128,), eps=1e-05, elementwise_affine=True)
)
intraCycleLayers.9.experts.7.in_linear Linear(in_features=128, out_features=256, bias=True)
intraCycleLayers.9.experts.7.dropout Dropout(p=0.05, inplace=False)
intraCycleLayers.9.experts.7.act ReLU()
intraCycleLayers.9.experts.7.out_linear Linear(in_features=256, out_features=128, bias=True)
intraCycleLayers.9.experts.7.ln LayerNorm((128,), eps=1e-05, elementwise_affine=True)
intraCycleLayers.9.experts.8 MLPBlock(
  (in_linear): Linear(in_features=128, out_features=256, bias=True)
  (dropout): Dropout(p=0.05, inplace=False)
  (act): ReLU()
  (out_linear): Linear(in_features=256, out_features=128, bias=True)
  (ln): LayerNorm((128,), eps=1e-05, elementwise_affine=True)
)
intraCycleLayers.9.experts.8.in_linear Linear(in_features=128, out_features=256, bias=True)
intraCycleLayers.9.experts.8.dropout Dropout(p=0.05, inplace=False)
intraCycleLayers.9.experts.8.act ReLU()
intraCycleLayers.9.experts.8.out_linear Linear(in_features=256, out_features=128, bias=True)
intraCycleLayers.9.experts.8.ln LayerNorm((128,), eps=1e-05, elementwise_affine=True)
intraCycleLayers.9.experts.9 MLPBlock(
  (in_linear): Linear(in_features=128, out_features=256, bias=True)
  (dropout): Dropout(p=0.05, inplace=False)
  (act): ReLU()
  (out_linear): Linear(in_features=256, out_features=128, bias=True)
  (ln): LayerNorm((128,), eps=1e-05, elementwise_affine=True)
)
intraCycleLayers.9.experts.9.in_linear Linear(in_features=128, out_features=256, bias=True)
intraCycleLayers.9.experts.9.dropout Dropout(p=0.05, inplace=False)
intraCycleLayers.9.experts.9.act ReLU()
intraCycleLayers.9.experts.9.out_linear Linear(in_features=256, out_features=128, bias=True)
intraCycleLayers.9.experts.9.ln LayerNorm((128,), eps=1e-05, elementwise_affine=True)
intraCycleLayers.9.general_experts ModuleList(
  (0): MLPBlock(
    (in_linear): Linear(in_features=128, out_features=256, bias=True)
    (dropout): Dropout(p=0.05, inplace=False)
    (act): ReLU()
    (out_linear): Linear(in_features=256, out_features=128, bias=True)
    (ln): LayerNorm((128,), eps=1e-05, elementwise_affine=True)
  )
)
intraCycleLayers.9.general_experts.0 MLPBlock(
  (in_linear): Linear(in_features=128, out_features=256, bias=True)
  (dropout): Dropout(p=0.05, inplace=False)
  (act): ReLU()
  (out_linear): Linear(in_features=256, out_features=128, bias=True)
  (ln): LayerNorm((128,), eps=1e-05, elementwise_affine=True)
)
intraCycleLayers.9.general_experts.0.in_linear Linear(in_features=128, out_features=256, bias=True)
intraCycleLayers.9.general_experts.0.dropout Dropout(p=0.05, inplace=False)
intraCycleLayers.9.general_experts.0.act ReLU()
intraCycleLayers.9.general_experts.0.out_linear Linear(in_features=256, out_features=128, bias=True)
intraCycleLayers.9.general_experts.0.ln LayerNorm((128,), eps=1e-05, elementwise_affine=True)
intraCycleLayers.9.gate PatternRouterMLP(
  (distribution_fit): Sequential(
    (0): Linear(in_features=3072, out_features=1536, bias=True)
    (1): LeakyReLU(negative_slope=0.01)
    (2): Linear(in_features=1536, out_features=10, bias=True)
  )
)
intraCycleLayers.9.gate.distribution_fit Sequential(
  (0): Linear(in_features=3072, out_features=1536, bias=True)
  (1): LeakyReLU(negative_slope=0.01)
  (2): Linear(in_features=1536, out_features=10, bias=True)
)
intraCycleLayers.9.gate.distribution_fit.0 Linear(in_features=3072, out_features=1536, bias=True)
intraCycleLayers.9.gate.distribution_fit.1 LeakyReLU(negative_slope=0.01)
intraCycleLayers.9.gate.distribution_fit.2 Linear(in_features=1536, out_features=10, bias=True)
intraCycleLayers.9.noise PatternRouterMLP(
  (distribution_fit): Sequential(
    (0): Linear(in_features=3072, out_features=1536, bias=True)
    (1): LeakyReLU(negative_slope=0.01)
    (2): Linear(in_features=1536, out_features=10, bias=True)
  )
)
intraCycleLayers.9.noise.distribution_fit Sequential(
  (0): Linear(in_features=3072, out_features=1536, bias=True)
  (1): LeakyReLU(negative_slope=0.01)
  (2): Linear(in_features=1536, out_features=10, bias=True)
)
intraCycleLayers.9.noise.distribution_fit.0 Linear(in_features=3072, out_features=1536, bias=True)
intraCycleLayers.9.noise.distribution_fit.1 LeakyReLU(negative_slope=0.01)
intraCycleLayers.9.noise.distribution_fit.2 Linear(in_features=1536, out_features=10, bias=True)
intraCycleLayers.9.softplus Softplus(beta=1.0, threshold=20.0)
flattenInterCycleLayer FlattenInterCycleMoELayer(
  (experts): ModuleList(
    (0-9): 10 x Sequential(
      (0): Flatten(start_dim=1, end_dim=-1)
      (1): Linear(in_features=12800, out_features=128, bias=True)
    )
  )
  (general_experts): ModuleList(
    (0): Sequential(
      (0): Flatten(start_dim=1, end_dim=-1)
      (1): Linear(in_features=12800, out_features=128, bias=True)
    )
  )
  (gate): PatternRouterMLP(
    (distribution_fit): Sequential(
      (0): Linear(in_features=3072, out_features=1536, bias=True)
      (1): LeakyReLU(negative_slope=0.01)
      (2): Linear(in_features=1536, out_features=10, bias=True)
    )
  )
  (noise): PatternRouterMLP(
    (distribution_fit): Sequential(
      (0): Linear(in_features=3072, out_features=1536, bias=True)
      (1): LeakyReLU(negative_slope=0.01)
      (2): Linear(in_features=1536, out_features=10, bias=True)
    )
  )
  (softplus): Softplus(beta=1.0, threshold=20.0)
)
flattenInterCycleLayer.experts ModuleList(
  (0-9): 10 x Sequential(
    (0): Flatten(start_dim=1, end_dim=-1)
    (1): Linear(in_features=12800, out_features=128, bias=True)
  )
)
flattenInterCycleLayer.experts.0 Sequential(
  (0): Flatten(start_dim=1, end_dim=-1)
  (1): Linear(in_features=12800, out_features=128, bias=True)
)
flattenInterCycleLayer.experts.0.0 Flatten(start_dim=1, end_dim=-1)
flattenInterCycleLayer.experts.0.1 Linear(in_features=12800, out_features=128, bias=True)
flattenInterCycleLayer.experts.1 Sequential(
  (0): Flatten(start_dim=1, end_dim=-1)
  (1): Linear(in_features=12800, out_features=128, bias=True)
)
flattenInterCycleLayer.experts.1.0 Flatten(start_dim=1, end_dim=-1)
flattenInterCycleLayer.experts.1.1 Linear(in_features=12800, out_features=128, bias=True)
flattenInterCycleLayer.experts.2 Sequential(
  (0): Flatten(start_dim=1, end_dim=-1)
  (1): Linear(in_features=12800, out_features=128, bias=True)
)
flattenInterCycleLayer.experts.2.0 Flatten(start_dim=1, end_dim=-1)
flattenInterCycleLayer.experts.2.1 Linear(in_features=12800, out_features=128, bias=True)
flattenInterCycleLayer.experts.3 Sequential(
  (0): Flatten(start_dim=1, end_dim=-1)
  (1): Linear(in_features=12800, out_features=128, bias=True)
)
flattenInterCycleLayer.experts.3.0 Flatten(start_dim=1, end_dim=-1)
flattenInterCycleLayer.experts.3.1 Linear(in_features=12800, out_features=128, bias=True)
flattenInterCycleLayer.experts.4 Sequential(
  (0): Flatten(start_dim=1, end_dim=-1)
  (1): Linear(in_features=12800, out_features=128, bias=True)
)
flattenInterCycleLayer.experts.4.0 Flatten(start_dim=1, end_dim=-1)
flattenInterCycleLayer.experts.4.1 Linear(in_features=12800, out_features=128, bias=True)
flattenInterCycleLayer.experts.5 Sequential(
  (0): Flatten(start_dim=1, end_dim=-1)
  (1): Linear(in_features=12800, out_features=128, bias=True)
)
flattenInterCycleLayer.experts.5.0 Flatten(start_dim=1, end_dim=-1)
flattenInterCycleLayer.experts.5.1 Linear(in_features=12800, out_features=128, bias=True)
flattenInterCycleLayer.experts.6 Sequential(
  (0): Flatten(start_dim=1, end_dim=-1)
  (1): Linear(in_features=12800, out_features=128, bias=True)
)
flattenInterCycleLayer.experts.6.0 Flatten(start_dim=1, end_dim=-1)
flattenInterCycleLayer.experts.6.1 Linear(in_features=12800, out_features=128, bias=True)
flattenInterCycleLayer.experts.7 Sequential(
  (0): Flatten(start_dim=1, end_dim=-1)
  (1): Linear(in_features=12800, out_features=128, bias=True)
)
flattenInterCycleLayer.experts.7.0 Flatten(start_dim=1, end_dim=-1)
flattenInterCycleLayer.experts.7.1 Linear(in_features=12800, out_features=128, bias=True)
flattenInterCycleLayer.experts.8 Sequential(
  (0): Flatten(start_dim=1, end_dim=-1)
  (1): Linear(in_features=12800, out_features=128, bias=True)
)
flattenInterCycleLayer.experts.8.0 Flatten(start_dim=1, end_dim=-1)
flattenInterCycleLayer.experts.8.1 Linear(in_features=12800, out_features=128, bias=True)
flattenInterCycleLayer.experts.9 Sequential(
  (0): Flatten(start_dim=1, end_dim=-1)
  (1): Linear(in_features=12800, out_features=128, bias=True)
)
flattenInterCycleLayer.experts.9.0 Flatten(start_dim=1, end_dim=-1)
flattenInterCycleLayer.experts.9.1 Linear(in_features=12800, out_features=128, bias=True)
flattenInterCycleLayer.general_experts ModuleList(
  (0): Sequential(
    (0): Flatten(start_dim=1, end_dim=-1)
    (1): Linear(in_features=12800, out_features=128, bias=True)
  )
)
flattenInterCycleLayer.general_experts.0 Sequential(
  (0): Flatten(start_dim=1, end_dim=-1)
  (1): Linear(in_features=12800, out_features=128, bias=True)
)
flattenInterCycleLayer.general_experts.0.0 Flatten(start_dim=1, end_dim=-1)
flattenInterCycleLayer.general_experts.0.1 Linear(in_features=12800, out_features=128, bias=True)
flattenInterCycleLayer.gate PatternRouterMLP(
  (distribution_fit): Sequential(
    (0): Linear(in_features=3072, out_features=1536, bias=True)
    (1): LeakyReLU(negative_slope=0.01)
    (2): Linear(in_features=1536, out_features=10, bias=True)
  )
)
flattenInterCycleLayer.gate.distribution_fit Sequential(
  (0): Linear(in_features=3072, out_features=1536, bias=True)
  (1): LeakyReLU(negative_slope=0.01)
  (2): Linear(in_features=1536, out_features=10, bias=True)
)
flattenInterCycleLayer.gate.distribution_fit.0 Linear(in_features=3072, out_features=1536, bias=True)
flattenInterCycleLayer.gate.distribution_fit.1 LeakyReLU(negative_slope=0.01)
flattenInterCycleLayer.gate.distribution_fit.2 Linear(in_features=1536, out_features=10, bias=True)
flattenInterCycleLayer.noise PatternRouterMLP(
  (distribution_fit): Sequential(
    (0): Linear(in_features=3072, out_features=1536, bias=True)
    (1): LeakyReLU(negative_slope=0.01)
    (2): Linear(in_features=1536, out_features=10, bias=True)
  )
)
flattenInterCycleLayer.noise.distribution_fit Sequential(
  (0): Linear(in_features=3072, out_features=1536, bias=True)
  (1): LeakyReLU(negative_slope=0.01)
  (2): Linear(in_features=1536, out_features=10, bias=True)
)
flattenInterCycleLayer.noise.distribution_fit.0 Linear(in_features=3072, out_features=1536, bias=True)
flattenInterCycleLayer.noise.distribution_fit.1 LeakyReLU(negative_slope=0.01)
flattenInterCycleLayer.noise.distribution_fit.2 Linear(in_features=1536, out_features=10, bias=True)
flattenInterCycleLayer.softplus Softplus(beta=1.0, threshold=20.0)
interCycleLayers ModuleList(
  (0-9): 10 x InterCycleMoELayer(
    (experts): ModuleList(
      (0-9): 10 x MLPBlock(
        (in_linear): Linear(in_features=128, out_features=256, bias=True)
        (dropout): Dropout(p=0.05, inplace=False)
        (act): ReLU()
        (out_linear): Linear(in_features=256, out_features=128, bias=True)
        (ln): LayerNorm((128,), eps=1e-05, elementwise_affine=True)
      )
    )
    (general_experts): ModuleList(
      (0): MLPBlock(
        (in_linear): Linear(in_features=128, out_features=256, bias=True)
        (dropout): Dropout(p=0.05, inplace=False)
        (act): ReLU()
        (out_linear): Linear(in_features=256, out_features=128, bias=True)
        (ln): LayerNorm((128,), eps=1e-05, elementwise_affine=True)
      )
    )
    (gate): PatternRouterMLP(
      (distribution_fit): Sequential(
        (0): Linear(in_features=3072, out_features=1536, bias=True)
        (1): LeakyReLU(negative_slope=0.01)
        (2): Linear(in_features=1536, out_features=10, bias=True)
      )
    )
    (noise): PatternRouterMLP(
      (distribution_fit): Sequential(
        (0): Linear(in_features=3072, out_features=1536, bias=True)
        (1): LeakyReLU(negative_slope=0.01)
        (2): Linear(in_features=1536, out_features=10, bias=True)
      )
    )
    (softplus): Softplus(beta=1.0, threshold=20.0)
  )
)
interCycleLayers.0 InterCycleMoELayer(
  (experts): ModuleList(
    (0-9): 10 x MLPBlock(
      (in_linear): Linear(in_features=128, out_features=256, bias=True)
      (dropout): Dropout(p=0.05, inplace=False)
      (act): ReLU()
      (out_linear): Linear(in_features=256, out_features=128, bias=True)
      (ln): LayerNorm((128,), eps=1e-05, elementwise_affine=True)
    )
  )
  (general_experts): ModuleList(
    (0): MLPBlock(
      (in_linear): Linear(in_features=128, out_features=256, bias=True)
      (dropout): Dropout(p=0.05, inplace=False)
      (act): ReLU()
      (out_linear): Linear(in_features=256, out_features=128, bias=True)
      (ln): LayerNorm((128,), eps=1e-05, elementwise_affine=True)
    )
  )
  (gate): PatternRouterMLP(
    (distribution_fit): Sequential(
      (0): Linear(in_features=3072, out_features=1536, bias=True)
      (1): LeakyReLU(negative_slope=0.01)
      (2): Linear(in_features=1536, out_features=10, bias=True)
    )
  )
  (noise): PatternRouterMLP(
    (distribution_fit): Sequential(
      (0): Linear(in_features=3072, out_features=1536, bias=True)
      (1): LeakyReLU(negative_slope=0.01)
      (2): Linear(in_features=1536, out_features=10, bias=True)
    )
  )
  (softplus): Softplus(beta=1.0, threshold=20.0)
)
interCycleLayers.0.experts ModuleList(
  (0-9): 10 x MLPBlock(
    (in_linear): Linear(in_features=128, out_features=256, bias=True)
    (dropout): Dropout(p=0.05, inplace=False)
    (act): ReLU()
    (out_linear): Linear(in_features=256, out_features=128, bias=True)
    (ln): LayerNorm((128,), eps=1e-05, elementwise_affine=True)
  )
)
interCycleLayers.0.experts.0 MLPBlock(
  (in_linear): Linear(in_features=128, out_features=256, bias=True)
  (dropout): Dropout(p=0.05, inplace=False)
  (act): ReLU()
  (out_linear): Linear(in_features=256, out_features=128, bias=True)
  (ln): LayerNorm((128,), eps=1e-05, elementwise_affine=True)
)
interCycleLayers.0.experts.0.in_linear Linear(in_features=128, out_features=256, bias=True)
interCycleLayers.0.experts.0.dropout Dropout(p=0.05, inplace=False)
interCycleLayers.0.experts.0.act ReLU()
interCycleLayers.0.experts.0.out_linear Linear(in_features=256, out_features=128, bias=True)
interCycleLayers.0.experts.0.ln LayerNorm((128,), eps=1e-05, elementwise_affine=True)
interCycleLayers.0.experts.1 MLPBlock(
  (in_linear): Linear(in_features=128, out_features=256, bias=True)
  (dropout): Dropout(p=0.05, inplace=False)
  (act): ReLU()
  (out_linear): Linear(in_features=256, out_features=128, bias=True)
  (ln): LayerNorm((128,), eps=1e-05, elementwise_affine=True)
)
interCycleLayers.0.experts.1.in_linear Linear(in_features=128, out_features=256, bias=True)
interCycleLayers.0.experts.1.dropout Dropout(p=0.05, inplace=False)
interCycleLayers.0.experts.1.act ReLU()
interCycleLayers.0.experts.1.out_linear Linear(in_features=256, out_features=128, bias=True)
interCycleLayers.0.experts.1.ln LayerNorm((128,), eps=1e-05, elementwise_affine=True)
interCycleLayers.0.experts.2 MLPBlock(
  (in_linear): Linear(in_features=128, out_features=256, bias=True)
  (dropout): Dropout(p=0.05, inplace=False)
  (act): ReLU()
  (out_linear): Linear(in_features=256, out_features=128, bias=True)
  (ln): LayerNorm((128,), eps=1e-05, elementwise_affine=True)
)
interCycleLayers.0.experts.2.in_linear Linear(in_features=128, out_features=256, bias=True)
interCycleLayers.0.experts.2.dropout Dropout(p=0.05, inplace=False)
interCycleLayers.0.experts.2.act ReLU()
interCycleLayers.0.experts.2.out_linear Linear(in_features=256, out_features=128, bias=True)
interCycleLayers.0.experts.2.ln LayerNorm((128,), eps=1e-05, elementwise_affine=True)
interCycleLayers.0.experts.3 MLPBlock(
  (in_linear): Linear(in_features=128, out_features=256, bias=True)
  (dropout): Dropout(p=0.05, inplace=False)
  (act): ReLU()
  (out_linear): Linear(in_features=256, out_features=128, bias=True)
  (ln): LayerNorm((128,), eps=1e-05, elementwise_affine=True)
)
interCycleLayers.0.experts.3.in_linear Linear(in_features=128, out_features=256, bias=True)
interCycleLayers.0.experts.3.dropout Dropout(p=0.05, inplace=False)
interCycleLayers.0.experts.3.act ReLU()
interCycleLayers.0.experts.3.out_linear Linear(in_features=256, out_features=128, bias=True)
interCycleLayers.0.experts.3.ln LayerNorm((128,), eps=1e-05, elementwise_affine=True)
interCycleLayers.0.experts.4 MLPBlock(
  (in_linear): Linear(in_features=128, out_features=256, bias=True)
  (dropout): Dropout(p=0.05, inplace=False)
  (act): ReLU()
  (out_linear): Linear(in_features=256, out_features=128, bias=True)
  (ln): LayerNorm((128,), eps=1e-05, elementwise_affine=True)
)
interCycleLayers.0.experts.4.in_linear Linear(in_features=128, out_features=256, bias=True)
interCycleLayers.0.experts.4.dropout Dropout(p=0.05, inplace=False)
interCycleLayers.0.experts.4.act ReLU()
interCycleLayers.0.experts.4.out_linear Linear(in_features=256, out_features=128, bias=True)
interCycleLayers.0.experts.4.ln LayerNorm((128,), eps=1e-05, elementwise_affine=True)
interCycleLayers.0.experts.5 MLPBlock(
  (in_linear): Linear(in_features=128, out_features=256, bias=True)
  (dropout): Dropout(p=0.05, inplace=False)
  (act): ReLU()
  (out_linear): Linear(in_features=256, out_features=128, bias=True)
  (ln): LayerNorm((128,), eps=1e-05, elementwise_affine=True)
)
interCycleLayers.0.experts.5.in_linear Linear(in_features=128, out_features=256, bias=True)
interCycleLayers.0.experts.5.dropout Dropout(p=0.05, inplace=False)
interCycleLayers.0.experts.5.act ReLU()
interCycleLayers.0.experts.5.out_linear Linear(in_features=256, out_features=128, bias=True)
interCycleLayers.0.experts.5.ln LayerNorm((128,), eps=1e-05, elementwise_affine=True)
interCycleLayers.0.experts.6 MLPBlock(
  (in_linear): Linear(in_features=128, out_features=256, bias=True)
  (dropout): Dropout(p=0.05, inplace=False)
  (act): ReLU()
  (out_linear): Linear(in_features=256, out_features=128, bias=True)
  (ln): LayerNorm((128,), eps=1e-05, elementwise_affine=True)
)
interCycleLayers.0.experts.6.in_linear Linear(in_features=128, out_features=256, bias=True)
interCycleLayers.0.experts.6.dropout Dropout(p=0.05, inplace=False)
interCycleLayers.0.experts.6.act ReLU()
interCycleLayers.0.experts.6.out_linear Linear(in_features=256, out_features=128, bias=True)
interCycleLayers.0.experts.6.ln LayerNorm((128,), eps=1e-05, elementwise_affine=True)
interCycleLayers.0.experts.7 MLPBlock(
  (in_linear): Linear(in_features=128, out_features=256, bias=True)
  (dropout): Dropout(p=0.05, inplace=False)
  (act): ReLU()
  (out_linear): Linear(in_features=256, out_features=128, bias=True)
  (ln): LayerNorm((128,), eps=1e-05, elementwise_affine=True)
)
interCycleLayers.0.experts.7.in_linear Linear(in_features=128, out_features=256, bias=True)
interCycleLayers.0.experts.7.dropout Dropout(p=0.05, inplace=False)
interCycleLayers.0.experts.7.act ReLU()
interCycleLayers.0.experts.7.out_linear Linear(in_features=256, out_features=128, bias=True)
interCycleLayers.0.experts.7.ln LayerNorm((128,), eps=1e-05, elementwise_affine=True)
interCycleLayers.0.experts.8 MLPBlock(
  (in_linear): Linear(in_features=128, out_features=256, bias=True)
  (dropout): Dropout(p=0.05, inplace=False)
  (act): ReLU()
  (out_linear): Linear(in_features=256, out_features=128, bias=True)
  (ln): LayerNorm((128,), eps=1e-05, elementwise_affine=True)
)
interCycleLayers.0.experts.8.in_linear Linear(in_features=128, out_features=256, bias=True)
interCycleLayers.0.experts.8.dropout Dropout(p=0.05, inplace=False)
interCycleLayers.0.experts.8.act ReLU()
interCycleLayers.0.experts.8.out_linear Linear(in_features=256, out_features=128, bias=True)
interCycleLayers.0.experts.8.ln LayerNorm((128,), eps=1e-05, elementwise_affine=True)
interCycleLayers.0.experts.9 MLPBlock(
  (in_linear): Linear(in_features=128, out_features=256, bias=True)
  (dropout): Dropout(p=0.05, inplace=False)
  (act): ReLU()
  (out_linear): Linear(in_features=256, out_features=128, bias=True)
  (ln): LayerNorm((128,), eps=1e-05, elementwise_affine=True)
)
interCycleLayers.0.experts.9.in_linear Linear(in_features=128, out_features=256, bias=True)
interCycleLayers.0.experts.9.dropout Dropout(p=0.05, inplace=False)
interCycleLayers.0.experts.9.act ReLU()
interCycleLayers.0.experts.9.out_linear Linear(in_features=256, out_features=128, bias=True)
interCycleLayers.0.experts.9.ln LayerNorm((128,), eps=1e-05, elementwise_affine=True)
interCycleLayers.0.general_experts ModuleList(
  (0): MLPBlock(
    (in_linear): Linear(in_features=128, out_features=256, bias=True)
    (dropout): Dropout(p=0.05, inplace=False)
    (act): ReLU()
    (out_linear): Linear(in_features=256, out_features=128, bias=True)
    (ln): LayerNorm((128,), eps=1e-05, elementwise_affine=True)
  )
)
interCycleLayers.0.general_experts.0 MLPBlock(
  (in_linear): Linear(in_features=128, out_features=256, bias=True)
  (dropout): Dropout(p=0.05, inplace=False)
  (act): ReLU()
  (out_linear): Linear(in_features=256, out_features=128, bias=True)
  (ln): LayerNorm((128,), eps=1e-05, elementwise_affine=True)
)
interCycleLayers.0.general_experts.0.in_linear Linear(in_features=128, out_features=256, bias=True)
interCycleLayers.0.general_experts.0.dropout Dropout(p=0.05, inplace=False)
interCycleLayers.0.general_experts.0.act ReLU()
interCycleLayers.0.general_experts.0.out_linear Linear(in_features=256, out_features=128, bias=True)
interCycleLayers.0.general_experts.0.ln LayerNorm((128,), eps=1e-05, elementwise_affine=True)
interCycleLayers.0.gate PatternRouterMLP(
  (distribution_fit): Sequential(
    (0): Linear(in_features=3072, out_features=1536, bias=True)
    (1): LeakyReLU(negative_slope=0.01)
    (2): Linear(in_features=1536, out_features=10, bias=True)
  )
)
interCycleLayers.0.gate.distribution_fit Sequential(
  (0): Linear(in_features=3072, out_features=1536, bias=True)
  (1): LeakyReLU(negative_slope=0.01)
  (2): Linear(in_features=1536, out_features=10, bias=True)
)
interCycleLayers.0.gate.distribution_fit.0 Linear(in_features=3072, out_features=1536, bias=True)
interCycleLayers.0.gate.distribution_fit.1 LeakyReLU(negative_slope=0.01)
interCycleLayers.0.gate.distribution_fit.2 Linear(in_features=1536, out_features=10, bias=True)
interCycleLayers.0.noise PatternRouterMLP(
  (distribution_fit): Sequential(
    (0): Linear(in_features=3072, out_features=1536, bias=True)
    (1): LeakyReLU(negative_slope=0.01)
    (2): Linear(in_features=1536, out_features=10, bias=True)
  )
)
interCycleLayers.0.noise.distribution_fit Sequential(
  (0): Linear(in_features=3072, out_features=1536, bias=True)
  (1): LeakyReLU(negative_slope=0.01)
  (2): Linear(in_features=1536, out_features=10, bias=True)
)
interCycleLayers.0.noise.distribution_fit.0 Linear(in_features=3072, out_features=1536, bias=True)
interCycleLayers.0.noise.distribution_fit.1 LeakyReLU(negative_slope=0.01)
interCycleLayers.0.noise.distribution_fit.2 Linear(in_features=1536, out_features=10, bias=True)
interCycleLayers.0.softplus Softplus(beta=1.0, threshold=20.0)
interCycleLayers.1 InterCycleMoELayer(
  (experts): ModuleList(
    (0-9): 10 x MLPBlock(
      (in_linear): Linear(in_features=128, out_features=256, bias=True)
      (dropout): Dropout(p=0.05, inplace=False)
      (act): ReLU()
      (out_linear): Linear(in_features=256, out_features=128, bias=True)
      (ln): LayerNorm((128,), eps=1e-05, elementwise_affine=True)
    )
  )
  (general_experts): ModuleList(
    (0): MLPBlock(
      (in_linear): Linear(in_features=128, out_features=256, bias=True)
      (dropout): Dropout(p=0.05, inplace=False)
      (act): ReLU()
      (out_linear): Linear(in_features=256, out_features=128, bias=True)
      (ln): LayerNorm((128,), eps=1e-05, elementwise_affine=True)
    )
  )
  (gate): PatternRouterMLP(
    (distribution_fit): Sequential(
      (0): Linear(in_features=3072, out_features=1536, bias=True)
      (1): LeakyReLU(negative_slope=0.01)
      (2): Linear(in_features=1536, out_features=10, bias=True)
    )
  )
  (noise): PatternRouterMLP(
    (distribution_fit): Sequential(
      (0): Linear(in_features=3072, out_features=1536, bias=True)
      (1): LeakyReLU(negative_slope=0.01)
      (2): Linear(in_features=1536, out_features=10, bias=True)
    )
  )
  (softplus): Softplus(beta=1.0, threshold=20.0)
)
interCycleLayers.1.experts ModuleList(
  (0-9): 10 x MLPBlock(
    (in_linear): Linear(in_features=128, out_features=256, bias=True)
    (dropout): Dropout(p=0.05, inplace=False)
    (act): ReLU()
    (out_linear): Linear(in_features=256, out_features=128, bias=True)
    (ln): LayerNorm((128,), eps=1e-05, elementwise_affine=True)
  )
)
interCycleLayers.1.experts.0 MLPBlock(
  (in_linear): Linear(in_features=128, out_features=256, bias=True)
  (dropout): Dropout(p=0.05, inplace=False)
  (act): ReLU()
  (out_linear): Linear(in_features=256, out_features=128, bias=True)
  (ln): LayerNorm((128,), eps=1e-05, elementwise_affine=True)
)
interCycleLayers.1.experts.0.in_linear Linear(in_features=128, out_features=256, bias=True)
interCycleLayers.1.experts.0.dropout Dropout(p=0.05, inplace=False)
interCycleLayers.1.experts.0.act ReLU()
interCycleLayers.1.experts.0.out_linear Linear(in_features=256, out_features=128, bias=True)
interCycleLayers.1.experts.0.ln LayerNorm((128,), eps=1e-05, elementwise_affine=True)
interCycleLayers.1.experts.1 MLPBlock(
  (in_linear): Linear(in_features=128, out_features=256, bias=True)
  (dropout): Dropout(p=0.05, inplace=False)
  (act): ReLU()
  (out_linear): Linear(in_features=256, out_features=128, bias=True)
  (ln): LayerNorm((128,), eps=1e-05, elementwise_affine=True)
)
interCycleLayers.1.experts.1.in_linear Linear(in_features=128, out_features=256, bias=True)
interCycleLayers.1.experts.1.dropout Dropout(p=0.05, inplace=False)
interCycleLayers.1.experts.1.act ReLU()
interCycleLayers.1.experts.1.out_linear Linear(in_features=256, out_features=128, bias=True)
interCycleLayers.1.experts.1.ln LayerNorm((128,), eps=1e-05, elementwise_affine=True)
interCycleLayers.1.experts.2 MLPBlock(
  (in_linear): Linear(in_features=128, out_features=256, bias=True)
  (dropout): Dropout(p=0.05, inplace=False)
  (act): ReLU()
  (out_linear): Linear(in_features=256, out_features=128, bias=True)
  (ln): LayerNorm((128,), eps=1e-05, elementwise_affine=True)
)
interCycleLayers.1.experts.2.in_linear Linear(in_features=128, out_features=256, bias=True)
interCycleLayers.1.experts.2.dropout Dropout(p=0.05, inplace=False)
interCycleLayers.1.experts.2.act ReLU()
interCycleLayers.1.experts.2.out_linear Linear(in_features=256, out_features=128, bias=True)
interCycleLayers.1.experts.2.ln LayerNorm((128,), eps=1e-05, elementwise_affine=True)
interCycleLayers.1.experts.3 MLPBlock(
  (in_linear): Linear(in_features=128, out_features=256, bias=True)
  (dropout): Dropout(p=0.05, inplace=False)
  (act): ReLU()
  (out_linear): Linear(in_features=256, out_features=128, bias=True)
  (ln): LayerNorm((128,), eps=1e-05, elementwise_affine=True)
)
interCycleLayers.1.experts.3.in_linear Linear(in_features=128, out_features=256, bias=True)
interCycleLayers.1.experts.3.dropout Dropout(p=0.05, inplace=False)
interCycleLayers.1.experts.3.act ReLU()
interCycleLayers.1.experts.3.out_linear Linear(in_features=256, out_features=128, bias=True)
interCycleLayers.1.experts.3.ln LayerNorm((128,), eps=1e-05, elementwise_affine=True)
interCycleLayers.1.experts.4 MLPBlock(
  (in_linear): Linear(in_features=128, out_features=256, bias=True)
  (dropout): Dropout(p=0.05, inplace=False)
  (act): ReLU()
  (out_linear): Linear(in_features=256, out_features=128, bias=True)
  (ln): LayerNorm((128,), eps=1e-05, elementwise_affine=True)
)
interCycleLayers.1.experts.4.in_linear Linear(in_features=128, out_features=256, bias=True)
interCycleLayers.1.experts.4.dropout Dropout(p=0.05, inplace=False)
interCycleLayers.1.experts.4.act ReLU()
interCycleLayers.1.experts.4.out_linear Linear(in_features=256, out_features=128, bias=True)
interCycleLayers.1.experts.4.ln LayerNorm((128,), eps=1e-05, elementwise_affine=True)
interCycleLayers.1.experts.5 MLPBlock(
  (in_linear): Linear(in_features=128, out_features=256, bias=True)
  (dropout): Dropout(p=0.05, inplace=False)
  (act): ReLU()
  (out_linear): Linear(in_features=256, out_features=128, bias=True)
  (ln): LayerNorm((128,), eps=1e-05, elementwise_affine=True)
)
interCycleLayers.1.experts.5.in_linear Linear(in_features=128, out_features=256, bias=True)
interCycleLayers.1.experts.5.dropout Dropout(p=0.05, inplace=False)
interCycleLayers.1.experts.5.act ReLU()
interCycleLayers.1.experts.5.out_linear Linear(in_features=256, out_features=128, bias=True)
interCycleLayers.1.experts.5.ln LayerNorm((128,), eps=1e-05, elementwise_affine=True)
interCycleLayers.1.experts.6 MLPBlock(
  (in_linear): Linear(in_features=128, out_features=256, bias=True)
  (dropout): Dropout(p=0.05, inplace=False)
  (act): ReLU()
  (out_linear): Linear(in_features=256, out_features=128, bias=True)
  (ln): LayerNorm((128,), eps=1e-05, elementwise_affine=True)
)
interCycleLayers.1.experts.6.in_linear Linear(in_features=128, out_features=256, bias=True)
interCycleLayers.1.experts.6.dropout Dropout(p=0.05, inplace=False)
interCycleLayers.1.experts.6.act ReLU()
interCycleLayers.1.experts.6.out_linear Linear(in_features=256, out_features=128, bias=True)
interCycleLayers.1.experts.6.ln LayerNorm((128,), eps=1e-05, elementwise_affine=True)
interCycleLayers.1.experts.7 MLPBlock(
  (in_linear): Linear(in_features=128, out_features=256, bias=True)
  (dropout): Dropout(p=0.05, inplace=False)
  (act): ReLU()
  (out_linear): Linear(in_features=256, out_features=128, bias=True)
  (ln): LayerNorm((128,), eps=1e-05, elementwise_affine=True)
)
interCycleLayers.1.experts.7.in_linear Linear(in_features=128, out_features=256, bias=True)
interCycleLayers.1.experts.7.dropout Dropout(p=0.05, inplace=False)
interCycleLayers.1.experts.7.act ReLU()
interCycleLayers.1.experts.7.out_linear Linear(in_features=256, out_features=128, bias=True)
interCycleLayers.1.experts.7.ln LayerNorm((128,), eps=1e-05, elementwise_affine=True)
interCycleLayers.1.experts.8 MLPBlock(
  (in_linear): Linear(in_features=128, out_features=256, bias=True)
  (dropout): Dropout(p=0.05, inplace=False)
  (act): ReLU()
  (out_linear): Linear(in_features=256, out_features=128, bias=True)
  (ln): LayerNorm((128,), eps=1e-05, elementwise_affine=True)
)
interCycleLayers.1.experts.8.in_linear Linear(in_features=128, out_features=256, bias=True)
interCycleLayers.1.experts.8.dropout Dropout(p=0.05, inplace=False)
interCycleLayers.1.experts.8.act ReLU()
interCycleLayers.1.experts.8.out_linear Linear(in_features=256, out_features=128, bias=True)
interCycleLayers.1.experts.8.ln LayerNorm((128,), eps=1e-05, elementwise_affine=True)
interCycleLayers.1.experts.9 MLPBlock(
  (in_linear): Linear(in_features=128, out_features=256, bias=True)
  (dropout): Dropout(p=0.05, inplace=False)
  (act): ReLU()
  (out_linear): Linear(in_features=256, out_features=128, bias=True)
  (ln): LayerNorm((128,), eps=1e-05, elementwise_affine=True)
)
interCycleLayers.1.experts.9.in_linear Linear(in_features=128, out_features=256, bias=True)
interCycleLayers.1.experts.9.dropout Dropout(p=0.05, inplace=False)
interCycleLayers.1.experts.9.act ReLU()
interCycleLayers.1.experts.9.out_linear Linear(in_features=256, out_features=128, bias=True)
interCycleLayers.1.experts.9.ln LayerNorm((128,), eps=1e-05, elementwise_affine=True)
interCycleLayers.1.general_experts ModuleList(
…
interCycleLayers.5.experts.5.out_linear Linear(in_features=256, out_features=128, bias=True)
interCycleLayers.5.experts.5.ln LayerNorm((128,), eps=1e-05, elementwise_affine=True)
interCycleLayers.5.experts.6 MLPBlock(
  (in_linear): Linear(in_features=128, out_features=256, bias=True)
  (dropout): Dropout(p=0.05, inplace=False)
  (act): ReLU()
  (out_linear): Linear(in_features=256, out_features=128, bias=True)
  (ln): LayerNorm((128,), eps=1e-05, elementwise_affine=True)
)
interCycleLayers.5.experts.6.in_linear Linear(in_features=128, out_features=256, bias=True)
interCycleLayers.5.experts.6.dropout Dropout(p=0.05, inplace=False)
interCycleLayers.5.experts.6.act ReLU()
interCycleLayers.5.experts.6.out_linear Linear(in_features=256, out_features=128, bias=True)
interCycleLayers.5.experts.6.ln LayerNorm((128,), eps=1e-05, elementwise_affine=True)
interCycleLayers.5.experts.7 MLPBlock(
  (in_linear): Linear(in_features=128, out_features=256, bias=True)
  (dropout): Dropout(p=0.05, inplace=False)
  (act): ReLU()
  (out_linear): Linear(in_features=256, out_features=128, bias=True)
  (ln): LayerNorm((128,), eps=1e-05, elementwise_affine=True)
)
interCycleLayers.5.experts.7.in_linear Linear(in_features=128, out_features=256, bias=True)
interCycleLayers.5.experts.7.dropout Dropout(p=0.05, inplace=False)
interCycleLayers.5.experts.7.act ReLU()
interCycleLayers.5.experts.7.out_linear Linear(in_features=256, out_features=128, bias=True)
interCycleLayers.5.experts.7.ln LayerNorm((128,), eps=1e-05, elementwise_affine=True)
interCycleLayers.5.experts.8 MLPBlock(
  (in_linear): Linear(in_features=128, out_features=256, bias=True)
  (dropout): Dropout(p=0.05, inplace=False)
  (act): ReLU()
  (out_linear): Linear(in_features=256, out_features=128, bias=True)
  (ln): LayerNorm((128,), eps=1e-05, elementwise_affine=True)
)
interCycleLayers.5.experts.8.in_linear Linear(in_features=128, out_features=256, bias=True)
interCycleLayers.5.experts.8.dropout Dropout(p=0.05, inplace=False)
interCycleLayers.5.experts.8.act ReLU()
interCycleLayers.5.experts.8.out_linear Linear(in_features=256, out_features=128, bias=True)
interCycleLayers.5.experts.8.ln LayerNorm((128,), eps=1e-05, elementwise_affine=True)
interCycleLayers.5.experts.9 MLPBlock(
  (in_linear): Linear(in_features=128, out_features=256, bias=True)
  (dropout): Dropout(p=0.05, inplace=False)
  (act): ReLU()
  (out_linear): Linear(in_features=256, out_features=128, bias=True)
  (ln): LayerNorm((128,), eps=1e-05, elementwise_affine=True)
)
interCycleLayers.5.experts.9.in_linear Linear(in_features=128, out_features=256, bias=True)
interCycleLayers.5.experts.9.dropout Dropout(p=0.05, inplace=False)
interCycleLayers.5.experts.9.act ReLU()
interCycleLayers.5.experts.9.out_linear Linear(in_features=256, out_features=128, bias=True)
interCycleLayers.5.experts.9.ln LayerNorm((128,), eps=1e-05, elementwise_affine=True)
interCycleLayers.5.general_experts ModuleList(
  (0): MLPBlock(
    (in_linear): Linear(in_features=128, out_features=256, bias=True)
    (dropout): Dropout(p=0.05, inplace=False)
    (act): ReLU()
    (out_linear): Linear(in_features=256, out_features=128, bias=True)
    (ln): LayerNorm((128,), eps=1e-05, elementwise_affine=True)
  )
)
interCycleLayers.5.general_experts.0 MLPBlock(
  (in_linear): Linear(in_features=128, out_features=256, bias=True)
  (dropout): Dropout(p=0.05, inplace=False)
  (act): ReLU()
  (out_linear): Linear(in_features=256, out_features=128, bias=True)
  (ln): LayerNorm((128,), eps=1e-05, elementwise_affine=True)
)
interCycleLayers.5.general_experts.0.in_linear Linear(in_features=128, out_features=256, bias=True)
interCycleLayers.5.general_experts.0.dropout Dropout(p=0.05, inplace=False)
interCycleLayers.5.general_experts.0.act ReLU()
interCycleLayers.5.general_experts.0.out_linear Linear(in_features=256, out_features=128, bias=True)
interCycleLayers.5.general_experts.0.ln LayerNorm((128,), eps=1e-05, elementwise_affine=True)
interCycleLayers.5.gate PatternRouterMLP(
  (distribution_fit): Sequential(
    (0): Linear(in_features=3072, out_features=1536, bias=True)
    (1): LeakyReLU(negative_slope=0.01)
    (2): Linear(in_features=1536, out_features=10, bias=True)
  )
)
interCycleLayers.5.gate.distribution_fit Sequential(
  (0): Linear(in_features=3072, out_features=1536, bias=True)
  (1): LeakyReLU(negative_slope=0.01)
  (2): Linear(in_features=1536, out_features=10, bias=True)
)
interCycleLayers.5.gate.distribution_fit.0 Linear(in_features=3072, out_features=1536, bias=True)
interCycleLayers.5.gate.distribution_fit.1 LeakyReLU(negative_slope=0.01)
interCycleLayers.5.gate.distribution_fit.2 Linear(in_features=1536, out_features=10, bias=True)
interCycleLayers.5.noise PatternRouterMLP(
  (distribution_fit): Sequential(
    (0): Linear(in_features=3072, out_features=1536, bias=True)
    (1): LeakyReLU(negative_slope=0.01)
    (2): Linear(in_features=1536, out_features=10, bias=True)
  )
)
interCycleLayers.5.noise.distribution_fit Sequential(
  (0): Linear(in_features=3072, out_features=1536, bias=True)
  (1): LeakyReLU(negative_slope=0.01)
  (2): Linear(in_features=1536, out_features=10, bias=True)
)
interCycleLayers.5.noise.distribution_fit.0 Linear(in_features=3072, out_features=1536, bias=True)
interCycleLayers.5.noise.distribution_fit.1 LeakyReLU(negative_slope=0.01)
interCycleLayers.5.noise.distribution_fit.2 Linear(in_features=1536, out_features=10, bias=True)
interCycleLayers.5.softplus Softplus(beta=1.0, threshold=20.0)
interCycleLayers.6 InterCycleMoELayer(
  (experts): ModuleList(
    (0-9): 10 x MLPBlock(
      (in_linear): Linear(in_features=128, out_features=256, bias=True)
      (dropout): Dropout(p=0.05, inplace=False)
      (act): ReLU()
      (out_linear): Linear(in_features=256, out_features=128, bias=True)
      (ln): LayerNorm((128,), eps=1e-05, elementwise_affine=True)
    )
  )
  (general_experts): ModuleList(
    (0): MLPBlock(
      (in_linear): Linear(in_features=128, out_features=256, bias=True)
      (dropout): Dropout(p=0.05, inplace=False)
      (act): ReLU()
      (out_linear): Linear(in_features=256, out_features=128, bias=True)
      (ln): LayerNorm((128,), eps=1e-05, elementwise_affine=True)
    )
  )
  (gate): PatternRouterMLP(
    (distribution_fit): Sequential(
      (0): Linear(in_features=3072, out_features=1536, bias=True)
      (1): LeakyReLU(negative_slope=0.01)
      (2): Linear(in_features=1536, out_features=10, bias=True)
    )
  )
  (noise): PatternRouterMLP(
    (distribution_fit): Sequential(
      (0): Linear(in_features=3072, out_features=1536, bias=True)
      (1): LeakyReLU(negative_slope=0.01)
      (2): Linear(in_features=1536, out_features=10, bias=True)
    )
  )
  (softplus): Softplus(beta=1.0, threshold=20.0)
)
interCycleLayers.6.experts ModuleList(
  (0-9): 10 x MLPBlock(
    (in_linear): Linear(in_features=128, out_features=256, bias=True)
    (dropout): Dropout(p=0.05, inplace=False)
    (act): ReLU()
    (out_linear): Linear(in_features=256, out_features=128, bias=True)
    (ln): LayerNorm((128,), eps=1e-05, elementwise_affine=True)
  )
)
interCycleLayers.6.experts.0 MLPBlock(
  (in_linear): Linear(in_features=128, out_features=256, bias=True)
  (dropout): Dropout(p=0.05, inplace=False)
  (act): ReLU()
  (out_linear): Linear(in_features=256, out_features=128, bias=True)
  (ln): LayerNorm((128,), eps=1e-05, elementwise_affine=True)
)
interCycleLayers.6.experts.0.in_linear Linear(in_features=128, out_features=256, bias=True)
interCycleLayers.6.experts.0.dropout Dropout(p=0.05, inplace=False)
interCycleLayers.6.experts.0.act ReLU()
interCycleLayers.6.experts.0.out_linear Linear(in_features=256, out_features=128, bias=True)
interCycleLayers.6.experts.0.ln LayerNorm((128,), eps=1e-05, elementwise_affine=True)
interCycleLayers.6.experts.1 MLPBlock(
  (in_linear): Linear(in_features=128, out_features=256, bias=True)
  (dropout): Dropout(p=0.05, inplace=False)
  (act): ReLU()
  (out_linear): Linear(in_features=256, out_features=128, bias=True)
  (ln): LayerNorm((128,), eps=1e-05, elementwise_affine=True)
)
interCycleLayers.6.experts.1.in_linear Linear(in_features=128, out_features=256, bias=True)
interCycleLayers.6.experts.1.dropout Dropout(p=0.05, inplace=False)
interCycleLayers.6.experts.1.act ReLU()
interCycleLayers.6.experts.1.out_linear Linear(in_features=256, out_features=128, bias=True)
interCycleLayers.6.experts.1.ln LayerNorm((128,), eps=1e-05, elementwise_affine=True)
interCycleLayers.6.experts.2 MLPBlock(
  (in_linear): Linear(in_features=128, out_features=256, bias=True)
  (dropout): Dropout(p=0.05, inplace=False)
  (act): ReLU()
  (out_linear): Linear(in_features=256, out_features=128, bias=True)
  (ln): LayerNorm((128,), eps=1e-05, elementwise_affine=True)
)
interCycleLayers.6.experts.2.in_linear Linear(in_features=128, out_features=256, bias=True)
interCycleLayers.6.experts.2.dropout Dropout(p=0.05, inplace=False)
interCycleLayers.6.experts.2.act ReLU()
interCycleLayers.6.experts.2.out_linear Linear(in_features=256, out_features=128, bias=True)
interCycleLayers.6.experts.2.ln LayerNorm((128,), eps=1e-05, elementwise_affine=True)
interCycleLayers.6.experts.3 MLPBlock(
  (in_linear): Linear(in_features=128, out_features=256, bias=True)
  (dropout): Dropout(p=0.05, inplace=False)
  (act): ReLU()
  (out_linear): Linear(in_features=256, out_features=128, bias=True)
  (ln): LayerNorm((128,), eps=1e-05, elementwise_affine=True)
)
interCycleLayers.6.experts.3.in_linear Linear(in_features=128, out_features=256, bias=True)
interCycleLayers.6.experts.3.dropout Dropout(p=0.05, inplace=False)
interCycleLayers.6.experts.3.act ReLU()
interCycleLayers.6.experts.3.out_linear Linear(in_features=256, out_features=128, bias=True)
interCycleLayers.6.experts.3.ln LayerNorm((128,), eps=1e-05, elementwise_affine=True)
interCycleLayers.6.experts.4 MLPBlock(
  (in_linear): Linear(in_features=128, out_features=256, bias=True)
  (dropout): Dropout(p=0.05, inplace=False)
  (act): ReLU()
  (out_linear): Linear(in_features=256, out_features=128, bias=True)
  (ln): LayerNorm((128,), eps=1e-05, elementwise_affine=True)
)
interCycleLayers.6.experts.4.in_linear Linear(in_features=128, out_features=256, bias=True)
interCycleLayers.6.experts.4.dropout Dropout(p=0.05, inplace=False)
interCycleLayers.6.experts.4.act ReLU()
interCycleLayers.6.experts.4.out_linear Linear(in_features=256, out_features=128, bias=True)
interCycleLayers.6.experts.4.ln LayerNorm((128,), eps=1e-05, elementwise_affine=True)
interCycleLayers.6.experts.5 MLPBlock(
  (in_linear): Linear(in_features=128, out_features=256, bias=True)
  (dropout): Dropout(p=0.05, inplace=False)
  (act): ReLU()
  (out_linear): Linear(in_features=256, out_features=128, bias=True)
  (ln): LayerNorm((128,), eps=1e-05, elementwise_affine=True)
)
interCycleLayers.6.experts.5.in_linear Linear(in_features=128, out_features=256, bias=True)
interCycleLayers.6.experts.5.dropout Dropout(p=0.05, inplace=False)
interCycleLayers.6.experts.5.act ReLU()
interCycleLayers.6.experts.5.out_linear Linear(in_features=256, out_features=128, bias=True)
interCycleLayers.6.experts.5.ln LayerNorm((128,), eps=1e-05, elementwise_affine=True)
interCycleLayers.6.experts.6 MLPBlock(
  (in_linear): Linear(in_features=128, out_features=256, bias=True)
  (dropout): Dropout(p=0.05, inplace=False)
  (act): ReLU()
  (out_linear): Linear(in_features=256, out_features=128, bias=True)
  (ln): LayerNorm((128,), eps=1e-05, elementwise_affine=True)
)
interCycleLayers.6.experts.6.in_linear Linear(in_features=128, out_features=256, bias=True)
interCycleLayers.6.experts.6.dropout Dropout(p=0.05, inplace=False)
interCycleLayers.6.experts.6.act ReLU()
interCycleLayers.6.experts.6.out_linear Linear(in_features=256, out_features=128, bias=True)
interCycleLayers.6.experts.6.ln LayerNorm((128,), eps=1e-05, elementwise_affine=True)
interCycleLayers.6.experts.7 MLPBlock(
  (in_linear): Linear(in_features=128, out_features=256, bias=True)
  (dropout): Dropout(p=0.05, inplace=False)
  (act): ReLU()
  (out_linear): Linear(in_features=256, out_features=128, bias=True)
  (ln): LayerNorm((128,), eps=1e-05, elementwise_affine=True)
)
interCycleLayers.6.experts.7.in_linear Linear(in_features=128, out_features=256, bias=True)
interCycleLayers.6.experts.7.dropout Dropout(p=0.05, inplace=False)
interCycleLayers.6.experts.7.act ReLU()
interCycleLayers.6.experts.7.out_linear Linear(in_features=256, out_features=128, bias=True)
interCycleLayers.6.experts.7.ln LayerNorm((128,), eps=1e-05, elementwise_affine=True)
interCycleLayers.6.experts.8 MLPBlock(
  (in_linear): Linear(in_features=128, out_features=256, bias=True)
  (dropout): Dropout(p=0.05, inplace=False)
  (act): ReLU()
  (out_linear): Linear(in_features=256, out_features=128, bias=True)
  (ln): LayerNorm((128,), eps=1e-05, elementwise_affine=True)
)
interCycleLayers.6.experts.8.in_linear Linear(in_features=128, out_features=256, bias=True)
interCycleLayers.6.experts.8.dropout Dropout(p=0.05, inplace=False)
interCycleLayers.6.experts.8.act ReLU()
interCycleLayers.6.experts.8.out_linear Linear(in_features=256, out_features=128, bias=True)
interCycleLayers.6.experts.8.ln LayerNorm((128,), eps=1e-05, elementwise_affine=True)
interCycleLayers.6.experts.9 MLPBlock(
  (in_linear): Linear(in_features=128, out_features=256, bias=True)
  (dropout): Dropout(p=0.05, inplace=False)
  (act): ReLU()
  (out_linear): Linear(in_features=256, out_features=128, bias=True)
  (ln): LayerNorm((128,), eps=1e-05, elementwise_affine=True)
)
interCycleLayers.6.experts.9.in_linear Linear(in_features=128, out_features=256, bias=True)
interCycleLayers.6.experts.9.dropout Dropout(p=0.05, inplace=False)
interCycleLayers.6.experts.9.act ReLU()
interCycleLayers.6.experts.9.out_linear Linear(in_features=256, out_features=128, bias=True)
interCycleLayers.6.experts.9.ln LayerNorm((128,), eps=1e-05, elementwise_affine=True)
interCycleLayers.6.general_experts ModuleList(
  (0): MLPBlock(
    (in_linear): Linear(in_features=128, out_features=256, bias=True)
    (dropout): Dropout(p=0.05, inplace=False)
    (act): ReLU()
    (out_linear): Linear(in_features=256, out_features=128, bias=True)
    (ln): LayerNorm((128,), eps=1e-05, elementwise_affine=True)
  )
)
interCycleLayers.6.general_experts.0 MLPBlock(
  (in_linear): Linear(in_features=128, out_features=256, bias=True)
  (dropout): Dropout(p=0.05, inplace=False)
  (act): ReLU()
  (out_linear): Linear(in_features=256, out_features=128, bias=True)
  (ln): LayerNorm((128,), eps=1e-05, elementwise_affine=True)
)
interCycleLayers.6.general_experts.0.in_linear Linear(in_features=128, out_features=256, bias=True)
interCycleLayers.6.general_experts.0.dropout Dropout(p=0.05, inplace=False)
interCycleLayers.6.general_experts.0.act ReLU()
interCycleLayers.6.general_experts.0.out_linear Linear(in_features=256, out_features=128, bias=True)
interCycleLayers.6.general_experts.0.ln LayerNorm((128,), eps=1e-05, elementwise_affine=True)
interCycleLayers.6.gate PatternRouterMLP(
  (distribution_fit): Sequential(
    (0): Linear(in_features=3072, out_features=1536, bias=True)
    (1): LeakyReLU(negative_slope=0.01)
    (2): Linear(in_features=1536, out_features=10, bias=True)
  )
)
interCycleLayers.6.gate.distribution_fit Sequential(
  (0): Linear(in_features=3072, out_features=1536, bias=True)
  (1): LeakyReLU(negative_slope=0.01)
  (2): Linear(in_features=1536, out_features=10, bias=True)
)
interCycleLayers.6.gate.distribution_fit.0 Linear(in_features=3072, out_features=1536, bias=True)
interCycleLayers.6.gate.distribution_fit.1 LeakyReLU(negative_slope=0.01)
interCycleLayers.6.gate.distribution_fit.2 Linear(in_features=1536, out_features=10, bias=True)
interCycleLayers.6.noise PatternRouterMLP(
  (distribution_fit): Sequential(
    (0): Linear(in_features=3072, out_features=1536, bias=True)
    (1): LeakyReLU(negative_slope=0.01)
    (2): Linear(in_features=1536, out_features=10, bias=True)
  )
)
interCycleLayers.6.noise.distribution_fit Sequential(
  (0): Linear(in_features=3072, out_features=1536, bias=True)
  (1): LeakyReLU(negative_slope=0.01)
  (2): Linear(in_features=1536, out_features=10, bias=True)
)
interCycleLayers.6.noise.distribution_fit.0 Linear(in_features=3072, out_features=1536, bias=True)
interCycleLayers.6.noise.distribution_fit.1 LeakyReLU(negative_slope=0.01)
interCycleLayers.6.noise.distribution_fit.2 Linear(in_features=1536, out_features=10, bias=True)
interCycleLayers.6.softplus Softplus(beta=1.0, threshold=20.0)
interCycleLayers.7 InterCycleMoELayer(
  (experts): ModuleList(
    (0-9): 10 x MLPBlock(
      (in_linear): Linear(in_features=128, out_features=256, bias=True)
      (dropout): Dropout(p=0.05, inplace=False)
      (act): ReLU()
      (out_linear): Linear(in_features=256, out_features=128, bias=True)
      (ln): LayerNorm((128,), eps=1e-05, elementwise_affine=True)
    )
  )
  (general_experts): ModuleList(
    (0): MLPBlock(
      (in_linear): Linear(in_features=128, out_features=256, bias=True)
      (dropout): Dropout(p=0.05, inplace=False)
      (act): ReLU()
      (out_linear): Linear(in_features=256, out_features=128, bias=True)
      (ln): LayerNorm((128,), eps=1e-05, elementwise_affine=True)
    )
  )
  (gate): PatternRouterMLP(
    (distribution_fit): Sequential(
      (0): Linear(in_features=3072, out_features=1536, bias=True)
      (1): LeakyReLU(negative_slope=0.01)
      (2): Linear(in_features=1536, out_features=10, bias=True)
    )
  )
  (noise): PatternRouterMLP(
    (distribution_fit): Sequential(
      (0): Linear(in_features=3072, out_features=1536, bias=True)
      (1): LeakyReLU(negative_slope=0.01)
      (2): Linear(in_features=1536, out_features=10, bias=True)
    )
  )
  (softplus): Softplus(beta=1.0, threshold=20.0)
)
interCycleLayers.7.experts ModuleList(
  (0-9): 10 x MLPBlock(
    (in_linear): Linear(in_features=128, out_features=256, bias=True)
    (dropout): Dropout(p=0.05, inplace=False)
    (act): ReLU()
    (out_linear): Linear(in_features=256, out_features=128, bias=True)
    (ln): LayerNorm((128,), eps=1e-05, elementwise_affine=True)
  )
)
interCycleLayers.7.experts.0 MLPBlock(
  (in_linear): Linear(in_features=128, out_features=256, bias=True)
  (dropout): Dropout(p=0.05, inplace=False)
  (act): ReLU()
  (out_linear): Linear(in_features=256, out_features=128, bias=True)
  (ln): LayerNorm((128,), eps=1e-05, elementwise_affine=True)
)
interCycleLayers.7.experts.0.in_linear Linear(in_features=128, out_features=256, bias=True)
interCycleLayers.7.experts.0.dropout Dropout(p=0.05, inplace=False)
interCycleLayers.7.experts.0.act ReLU()
interCycleLayers.7.experts.0.out_linear Linear(in_features=256, out_features=128, bias=True)
interCycleLayers.7.experts.0.ln LayerNorm((128,), eps=1e-05, elementwise_affine=True)
interCycleLayers.7.experts.1 MLPBlock(
  (in_linear): Linear(in_features=128, out_features=256, bias=True)
  (dropout): Dropout(p=0.05, inplace=False)
  (act): ReLU()
  (out_linear): Linear(in_features=256, out_features=128, bias=True)
  (ln): LayerNorm((128,), eps=1e-05, elementwise_affine=True)
)
interCycleLayers.7.experts.1.in_linear Linear(in_features=128, out_features=256, bias=True)
interCycleLayers.7.experts.1.dropout Dropout(p=0.05, inplace=False)
interCycleLayers.7.experts.1.act ReLU()
interCycleLayers.7.experts.1.out_linear Linear(in_features=256, out_features=128, bias=True)
interCycleLayers.7.experts.1.ln LayerNorm((128,), eps=1e-05, elementwise_affine=True)
interCycleLayers.7.experts.2 MLPBlock(
  (in_linear): Linear(in_features=128, out_features=256, bias=True)
  (dropout): Dropout(p=0.05, inplace=False)
  (act): ReLU()
  (out_linear): Linear(in_features=256, out_features=128, bias=True)
  (ln): LayerNorm((128,), eps=1e-05, elementwise_affine=True)
)
interCycleLayers.7.experts.2.in_linear Linear(in_features=128, out_features=256, bias=True)
interCycleLayers.7.experts.2.dropout Dropout(p=0.05, inplace=False)
interCycleLayers.7.experts.2.act ReLU()
interCycleLayers.7.experts.2.out_linear Linear(in_features=256, out_features=128, bias=True)
interCycleLayers.7.experts.2.ln LayerNorm((128,), eps=1e-05, elementwise_affine=True)
interCycleLayers.7.experts.3 MLPBlock(
  (in_linear): Linear(in_features=128, out_features=256, bias=True)
  (dropout): Dropout(p=0.05, inplace=False)
  (act): ReLU()
  (out_linear): Linear(in_features=256, out_features=128, bias=True)
  (ln): LayerNorm((128,), eps=1e-05, elementwise_affine=True)
)
interCycleLayers.7.experts.3.in_linear Linear(in_features=128, out_features=256, bias=True)
interCycleLayers.7.experts.3.dropout Dropout(p=0.05, inplace=False)
interCycleLayers.7.experts.3.act ReLU()
interCycleLayers.7.experts.3.out_linear Linear(in_features=256, out_features=128, bias=True)
interCycleLayers.7.experts.3.ln LayerNorm((128,), eps=1e-05, elementwise_affine=True)
interCycleLayers.7.experts.4 MLPBlock(
  (in_linear): Linear(in_features=128, out_features=256, bias=True)
  (dropout): Dropout(p=0.05, inplace=False)
  (act): ReLU()
  (out_linear): Linear(in_features=256, out_features=128, bias=True)
  (ln): LayerNorm((128,), eps=1e-05, elementwise_affine=True)
)
interCycleLayers.7.experts.4.in_linear Linear(in_features=128, out_features=256, bias=True)
interCycleLayers.7.experts.4.dropout Dropout(p=0.05, inplace=False)
interCycleLayers.7.experts.4.act ReLU()
interCycleLayers.7.experts.4.out_linear Linear(in_features=256, out_features=128, bias=True)
interCycleLayers.7.experts.4.ln LayerNorm((128,), eps=1e-05, elementwise_affine=True)
interCycleLayers.7.experts.5 MLPBlock(
  (in_linear): Linear(in_features=128, out_features=256, bias=True)
  (dropout): Dropout(p=0.05, inplace=False)
  (act): ReLU()
  (out_linear): Linear(in_features=256, out_features=128, bias=True)
  (ln): LayerNorm((128,), eps=1e-05, elementwise_affine=True)
)
interCycleLayers.7.experts.5.in_linear Linear(in_features=128, out_features=256, bias=True)
interCycleLayers.7.experts.5.dropout Dropout(p=0.05, inplace=False)
interCycleLayers.7.experts.5.act ReLU()
interCycleLayers.7.experts.5.out_linear Linear(in_features=256, out_features=128, bias=True)
interCycleLayers.7.experts.5.ln LayerNorm((128,), eps=1e-05, elementwise_affine=True)
interCycleLayers.7.experts.6 MLPBlock(
  (in_linear): Linear(in_features=128, out_features=256, bias=True)
  (dropout): Dropout(p=0.05, inplace=False)
  (act): ReLU()
  (out_linear): Linear(in_features=256, out_features=128, bias=True)
  (ln): LayerNorm((128,), eps=1e-05, elementwise_affine=True)
)
interCycleLayers.7.experts.6.in_linear Linear(in_features=128, out_features=256, bias=True)
interCycleLayers.7.experts.6.dropout Dropout(p=0.05, inplace=False)
interCycleLayers.7.experts.6.act ReLU()
interCycleLayers.7.experts.6.out_linear Linear(in_features=256, out_features=128, bias=True)
interCycleLayers.7.experts.6.ln LayerNorm((128,), eps=1e-05, elementwise_affine=True)
interCycleLayers.7.experts.7 MLPBlock(
  (in_linear): Linear(in_features=128, out_features=256, bias=True)
  (dropout): Dropout(p=0.05, inplace=False)
  (act): ReLU()
  (out_linear): Linear(in_features=256, out_features=128, bias=True)
  (ln): LayerNorm((128,), eps=1e-05, elementwise_affine=True)
)
interCycleLayers.7.experts.7.in_linear Linear(in_features=128, out_features=256, bias=True)
interCycleLayers.7.experts.7.dropout Dropout(p=0.05, inplace=False)
interCycleLayers.7.experts.7.act ReLU()
interCycleLayers.7.experts.7.out_linear Linear(in_features=256, out_features=128, bias=True)
interCycleLayers.7.experts.7.ln LayerNorm((128,), eps=1e-05, elementwise_affine=True)
interCycleLayers.7.experts.8 MLPBlock(
  (in_linear): Linear(in_features=128, out_features=256, bias=True)
  (dropout): Dropout(p=0.05, inplace=False)
  (act): ReLU()
  (out_linear): Linear(in_features=256, out_features=128, bias=True)
  (ln): LayerNorm((128,), eps=1e-05, elementwise_affine=True)
)
interCycleLayers.7.experts.8.in_linear Linear(in_features=128, out_features=256, bias=True)
interCycleLayers.7.experts.8.dropout Dropout(p=0.05, inplace=False)
interCycleLayers.7.experts.8.act ReLU()
interCycleLayers.7.experts.8.out_linear Linear(in_features=256, out_features=128, bias=True)
interCycleLayers.7.experts.8.ln LayerNorm((128,), eps=1e-05, elementwise_affine=True)
interCycleLayers.7.experts.9 MLPBlock(
  (in_linear): Linear(in_features=128, out_features=256, bias=True)
  (dropout): Dropout(p=0.05, inplace=False)
  (act): ReLU()
  (out_linear): Linear(in_features=256, out_features=128, bias=True)
  (ln): LayerNorm((128,), eps=1e-05, elementwise_affine=True)
)
interCycleLayers.7.experts.9.in_linear Linear(in_features=128, out_features=256, bias=True)
interCycleLayers.7.experts.9.dropout Dropout(p=0.05, inplace=False)
interCycleLayers.7.experts.9.act ReLU()
interCycleLayers.7.experts.9.out_linear Linear(in_features=256, out_features=128, bias=True)
interCycleLayers.7.experts.9.ln LayerNorm((128,), eps=1e-05, elementwise_affine=True)
interCycleLayers.7.general_experts ModuleList(
  (0): MLPBlock(
    (in_linear): Linear(in_features=128, out_features=256, bias=True)
    (dropout): Dropout(p=0.05, inplace=False)
    (act): ReLU()
    (out_linear): Linear(in_features=256, out_features=128, bias=True)
    (ln): LayerNorm((128,), eps=1e-05, elementwise_affine=True)
  )
)
interCycleLayers.7.general_experts.0 MLPBlock(
  (in_linear): Linear(in_features=128, out_features=256, bias=True)
  (dropout): Dropout(p=0.05, inplace=False)
  (act): ReLU()
  (out_linear): Linear(in_features=256, out_features=128, bias=True)
  (ln): LayerNorm((128,), eps=1e-05, elementwise_affine=True)
)
interCycleLayers.7.general_experts.0.in_linear Linear(in_features=128, out_features=256, bias=True)
interCycleLayers.7.general_experts.0.dropout Dropout(p=0.05, inplace=False)
interCycleLayers.7.general_experts.0.act ReLU()
interCycleLayers.7.general_experts.0.out_linear Linear(in_features=256, out_features=128, bias=True)
interCycleLayers.7.general_experts.0.ln LayerNorm((128,), eps=1e-05, elementwise_affine=True)
interCycleLayers.7.gate PatternRouterMLP(
  (distribution_fit): Sequential(
    (0): Linear(in_features=3072, out_features=1536, bias=True)
    (1): LeakyReLU(negative_slope=0.01)
    (2): Linear(in_features=1536, out_features=10, bias=True)
  )
)
interCycleLayers.7.gate.distribution_fit Sequential(
  (0): Linear(in_features=3072, out_features=1536, bias=True)
  (1): LeakyReLU(negative_slope=0.01)
  (2): Linear(in_features=1536, out_features=10, bias=True)
)
interCycleLayers.7.gate.distribution_fit.0 Linear(in_features=3072, out_features=1536, bias=True)
interCycleLayers.7.gate.distribution_fit.1 LeakyReLU(negative_slope=0.01)
interCycleLayers.7.gate.distribution_fit.2 Linear(in_features=1536, out_features=10, bias=True)
interCycleLayers.7.noise PatternRouterMLP(
  (distribution_fit): Sequential(
    (0): Linear(in_features=3072, out_features=1536, bias=True)
    (1): LeakyReLU(negative_slope=0.01)
    (2): Linear(in_features=1536, out_features=10, bias=True)
  )
)
interCycleLayers.7.noise.distribution_fit Sequential(
  (0): Linear(in_features=3072, out_features=1536, bias=True)
  (1): LeakyReLU(negative_slope=0.01)
  (2): Linear(in_features=1536, out_features=10, bias=True)
)
interCycleLayers.7.noise.distribution_fit.0 Linear(in_features=3072, out_features=1536, bias=True)
interCycleLayers.7.noise.distribution_fit.1 LeakyReLU(negative_slope=0.01)
interCycleLayers.7.noise.distribution_fit.2 Linear(in_features=1536, out_features=10, bias=True)
interCycleLayers.7.softplus Softplus(beta=1.0, threshold=20.0)
interCycleLayers.8 InterCycleMoELayer(
  (experts): ModuleList(
    (0-9): 10 x MLPBlock(
      (in_linear): Linear(in_features=128, out_features=256, bias=True)
      (dropout): Dropout(p=0.05, inplace=False)
      (act): ReLU()
      (out_linear): Linear(in_features=256, out_features=128, bias=True)
      (ln): LayerNorm((128,), eps=1e-05, elementwise_affine=True)
    )
  )
  (general_experts): ModuleList(
    (0): MLPBlock(
      (in_linear): Linear(in_features=128, out_features=256, bias=True)
      (dropout): Dropout(p=0.05, inplace=False)
      (act): ReLU()
      (out_linear): Linear(in_features=256, out_features=128, bias=True)
      (ln): LayerNorm((128,), eps=1e-05, elementwise_affine=True)
    )
  )
  (gate): PatternRouterMLP(
    (distribution_fit): Sequential(
      (0): Linear(in_features=3072, out_features=1536, bias=True)
      (1): LeakyReLU(negative_slope=0.01)
      (2): Linear(in_features=1536, out_features=10, bias=True)
    )
  )
  (noise): PatternRouterMLP(
    (distribution_fit): Sequential(
      (0): Linear(in_features=3072, out_features=1536, bias=True)
      (1): LeakyReLU(negative_slope=0.01)
      (2): Linear(in_features=1536, out_features=10, bias=True)
    )
  )
  (softplus): Softplus(beta=1.0, threshold=20.0)
)
interCycleLayers.8.experts ModuleList(
  (0-9): 10 x MLPBlock(
    (in_linear): Linear(in_features=128, out_features=256, bias=True)
    (dropout): Dropout(p=0.05, inplace=False)
    (act): ReLU()
    (out_linear): Linear(in_features=256, out_features=128, bias=True)
    (ln): LayerNorm((128,), eps=1e-05, elementwise_affine=True)
  )
)
interCycleLayers.8.experts.0 MLPBlock(
  (in_linear): Linear(in_features=128, out_features=256, bias=True)
  (dropout): Dropout(p=0.05, inplace=False)
  (act): ReLU()
  (out_linear): Linear(in_features=256, out_features=128, bias=True)
  (ln): LayerNorm((128,), eps=1e-05, elementwise_affine=True)
)
interCycleLayers.8.experts.0.in_linear Linear(in_features=128, out_features=256, bias=True)
interCycleLayers.8.experts.0.dropout Dropout(p=0.05, inplace=False)
interCycleLayers.8.experts.0.act ReLU()
interCycleLayers.8.experts.0.out_linear Linear(in_features=256, out_features=128, bias=True)
interCycleLayers.8.experts.0.ln LayerNorm((128,), eps=1e-05, elementwise_affine=True)
interCycleLayers.8.experts.1 MLPBlock(
  (in_linear): Linear(in_features=128, out_features=256, bias=True)
  (dropout): Dropout(p=0.05, inplace=False)
  (act): ReLU()
  (out_linear): Linear(in_features=256, out_features=128, bias=True)
  (ln): LayerNorm((128,), eps=1e-05, elementwise_affine=True)
)
interCycleLayers.8.experts.1.in_linear Linear(in_features=128, out_features=256, bias=True)
interCycleLayers.8.experts.1.dropout Dropout(p=0.05, inplace=False)
interCycleLayers.8.experts.1.act ReLU()
interCycleLayers.8.experts.1.out_linear Linear(in_features=256, out_features=128, bias=True)
interCycleLayers.8.experts.1.ln LayerNorm((128,), eps=1e-05, elementwise_affine=True)
interCycleLayers.8.experts.2 MLPBlock(
  (in_linear): Linear(in_features=128, out_features=256, bias=True)
  (dropout): Dropout(p=0.05, inplace=False)
  (act): ReLU()
  (out_linear): Linear(in_features=256, out_features=128, bias=True)
  (ln): LayerNorm((128,), eps=1e-05, elementwise_affine=True)
)
interCycleLayers.8.experts.2.in_linear Linear(in_features=128, out_features=256, bias=True)
interCycleLayers.8.experts.2.dropout Dropout(p=0.05, inplace=False)
interCycleLayers.8.experts.2.act ReLU()
interCycleLayers.8.experts.2.out_linear Linear(in_features=256, out_features=128, bias=True)
interCycleLayers.8.experts.2.ln LayerNorm((128,), eps=1e-05, elementwise_affine=True)
interCycleLayers.8.experts.3 MLPBlock(
  (in_linear): Linear(in_features=128, out_features=256, bias=True)
  (dropout): Dropout(p=0.05, inplace=False)
  (act): ReLU()
  (out_linear): Linear(in_features=256, out_features=128, bias=True)
  (ln): LayerNorm((128,), eps=1e-05, elementwise_affine=True)
)
interCycleLayers.8.experts.3.in_linear Linear(in_features=128, out_features=256, bias=True)
interCycleLayers.8.experts.3.dropout Dropout(p=0.05, inplace=False)
interCycleLayers.8.experts.3.act ReLU()
interCycleLayers.8.experts.3.out_linear Linear(in_features=256, out_features=128, bias=True)
interCycleLayers.8.experts.3.ln LayerNorm((128,), eps=1e-05, elementwise_affine=True)
interCycleLayers.8.experts.4 MLPBlock(
  (in_linear): Linear(in_features=128, out_features=256, bias=True)
  (dropout): Dropout(p=0.05, inplace=False)
  (act): ReLU()
  (out_linear): Linear(in_features=256, out_features=128, bias=True)
  (ln): LayerNorm((128,), eps=1e-05, elementwise_affine=True)
)
interCycleLayers.8.experts.4.in_linear Linear(in_features=128, out_features=256, bias=True)
interCycleLayers.8.experts.4.dropout Dropout(p=0.05, inplace=False)
interCycleLayers.8.experts.4.act ReLU()
interCycleLayers.8.experts.4.out_linear Linear(in_features=256, out_features=128, bias=True)
interCycleLayers.8.experts.4.ln LayerNorm((128,), eps=1e-05, elementwise_affine=True)
interCycleLayers.8.experts.5 MLPBlock(
  (in_linear): Linear(in_features=128, out_features=256, bias=True)
  (dropout): Dropout(p=0.05, inplace=False)
  (act): ReLU()
  (out_linear): Linear(in_features=256, out_features=128, bias=True)
  (ln): LayerNorm((128,), eps=1e-05, elementwise_affine=True)
)
interCycleLayers.8.experts.5.in_linear Linear(in_features=128, out_features=256, bias=True)
interCycleLayers.8.experts.5.dropout Dropout(p=0.05, inplace=False)
interCycleLayers.8.experts.5.act ReLU()
interCycleLayers.8.experts.5.out_linear Linear(in_features=256, out_features=128, bias=True)
interCycleLayers.8.experts.5.ln LayerNorm((128,), eps=1e-05, elementwise_affine=True)
interCycleLayers.8.experts.6 MLPBlock(
  (in_linear): Linear(in_features=128, out_features=256, bias=True)
  (dropout): Dropout(p=0.05, inplace=False)
  (act): ReLU()
  (out_linear): Linear(in_features=256, out_features=128, bias=True)
  (ln): LayerNorm((128,), eps=1e-05, elementwise_affine=True)
)
interCycleLayers.8.experts.6.in_linear Linear(in_features=128, out_features=256, bias=True)
interCycleLayers.8.experts.6.dropout Dropout(p=0.05, inplace=False)
interCycleLayers.8.experts.6.act ReLU()
interCycleLayers.8.experts.6.out_linear Linear(in_features=256, out_features=128, bias=True)
interCycleLayers.8.experts.6.ln LayerNorm((128,), eps=1e-05, elementwise_affine=True)
interCycleLayers.8.experts.7 MLPBlock(
  (in_linear): Linear(in_features=128, out_features=256, bias=True)
  (dropout): Dropout(p=0.05, inplace=False)
  (act): ReLU()
  (out_linear): Linear(in_features=256, out_features=128, bias=True)
  (ln): LayerNorm((128,), eps=1e-05, elementwise_affine=True)
)
interCycleLayers.8.experts.7.in_linear Linear(in_features=128, out_features=256, bias=True)
interCycleLayers.8.experts.7.dropout Dropout(p=0.05, inplace=False)
interCycleLayers.8.experts.7.act ReLU()
interCycleLayers.8.experts.7.out_linear Linear(in_features=256, out_features=128, bias=True)
interCycleLayers.8.experts.7.ln LayerNorm((128,), eps=1e-05, elementwise_affine=True)
interCycleLayers.8.experts.8 MLPBlock(
  (in_linear): Linear(in_features=128, out_features=256, bias=True)
  (dropout): Dropout(p=0.05, inplace=False)
  (act): ReLU()
  (out_linear): Linear(in_features=256, out_features=128, bias=True)
  (ln): LayerNorm((128,), eps=1e-05, elementwise_affine=True)
)
interCycleLayers.8.experts.8.in_linear Linear(in_features=128, out_features=256, bias=True)
interCycleLayers.8.experts.8.dropout Dropout(p=0.05, inplace=False)
interCycleLayers.8.experts.8.act ReLU()
interCycleLayers.8.experts.8.out_linear Linear(in_features=256, out_features=128, bias=True)
interCycleLayers.8.experts.8.ln LayerNorm((128,), eps=1e-05, elementwise_affine=True)
interCycleLayers.8.experts.9 MLPBlock(
  (in_linear): Linear(in_features=128, out_features=256, bias=True)
  (dropout): Dropout(p=0.05, inplace=False)
  (act): ReLU()
  (out_linear): Linear(in_features=256, out_features=128, bias=True)
  (ln): LayerNorm((128,), eps=1e-05, elementwise_affine=True)
)
interCycleLayers.8.experts.9.in_linear Linear(in_features=128, out_features=256, bias=True)
interCycleLayers.8.experts.9.dropout Dropout(p=0.05, inplace=False)
interCycleLayers.8.experts.9.act ReLU()
interCycleLayers.8.experts.9.out_linear Linear(in_features=256, out_features=128, bias=True)
interCycleLayers.8.experts.9.ln LayerNorm((128,), eps=1e-05, elementwise_affine=True)
interCycleLayers.8.general_experts ModuleList(
  (0): MLPBlock(
    (in_linear): Linear(in_features=128, out_features=256, bias=True)
    (dropout): Dropout(p=0.05, inplace=False)
    (act): ReLU()
    (out_linear): Linear(in_features=256, out_features=128, bias=True)
    (ln): LayerNorm((128,), eps=1e-05, elementwise_affine=True)
  )
)
interCycleLayers.8.general_experts.0 MLPBlock(
  (in_linear): Linear(in_features=128, out_features=256, bias=True)
  (dropout): Dropout(p=0.05, inplace=False)
  (act): ReLU()
  (out_linear): Linear(in_features=256, out_features=128, bias=True)
  (ln): LayerNorm((128,), eps=1e-05, elementwise_affine=True)
)
interCycleLayers.8.general_experts.0.in_linear Linear(in_features=128, out_features=256, bias=True)
interCycleLayers.8.general_experts.0.dropout Dropout(p=0.05, inplace=False)
interCycleLayers.8.general_experts.0.act ReLU()
interCycleLayers.8.general_experts.0.out_linear Linear(in_features=256, out_features=128, bias=True)
interCycleLayers.8.general_experts.0.ln LayerNorm((128,), eps=1e-05, elementwise_affine=True)
interCycleLayers.8.gate PatternRouterMLP(
  (distribution_fit): Sequential(
    (0): Linear(in_features=3072, out_features=1536, bias=True)
    (1): LeakyReLU(negative_slope=0.01)
    (2): Linear(in_features=1536, out_features=10, bias=True)
  )
)
interCycleLayers.8.gate.distribution_fit Sequential(
  (0): Linear(in_features=3072, out_features=1536, bias=True)
  (1): LeakyReLU(negative_slope=0.01)
  (2): Linear(in_features=1536, out_features=10, bias=True)
)
interCycleLayers.8.gate.distribution_fit.0 Linear(in_features=3072, out_features=1536, bias=True)
interCycleLayers.8.gate.distribution_fit.1 LeakyReLU(negative_slope=0.01)
interCycleLayers.8.gate.distribution_fit.2 Linear(in_features=1536, out_features=10, bias=True)
interCycleLayers.8.noise PatternRouterMLP(
  (distribution_fit): Sequential(
    (0): Linear(in_features=3072, out_features=1536, bias=True)
    (1): LeakyReLU(negative_slope=0.01)
    (2): Linear(in_features=1536, out_features=10, bias=True)
  )
)
interCycleLayers.8.noise.distribution_fit Sequential(
  (0): Linear(in_features=3072, out_features=1536, bias=True)
  (1): LeakyReLU(negative_slope=0.01)
  (2): Linear(in_features=1536, out_features=10, bias=True)
)
interCycleLayers.8.noise.distribution_fit.0 Linear(in_features=3072, out_features=1536, bias=True)
interCycleLayers.8.noise.distribution_fit.1 LeakyReLU(negative_slope=0.01)
interCycleLayers.8.noise.distribution_fit.2 Linear(in_features=1536, out_features=10, bias=True)
interCycleLayers.8.softplus Softplus(beta=1.0, threshold=20.0)
interCycleLayers.9 InterCycleMoELayer(
  (experts): ModuleList(
    (0-9): 10 x MLPBlock(
      (in_linear): Linear(in_features=128, out_features=256, bias=True)
      (dropout): Dropout(p=0.05, inplace=False)
      (act): ReLU()
      (out_linear): Linear(in_features=256, out_features=128, bias=True)
      (ln): LayerNorm((128,), eps=1e-05, elementwise_affine=True)
    )
  )
  (general_experts): ModuleList(
    (0): MLPBlock(
      (in_linear): Linear(in_features=128, out_features=256, bias=True)
      (dropout): Dropout(p=0.05, inplace=False)
      (act): ReLU()
      (out_linear): Linear(in_features=256, out_features=128, bias=True)
      (ln): LayerNorm((128,), eps=1e-05, elementwise_affine=True)
    )
  )
  (gate): PatternRouterMLP(
    (distribution_fit): Sequential(
      (0): Linear(in_features=3072, out_features=1536, bias=True)
      (1): LeakyReLU(negative_slope=0.01)
      (2): Linear(in_features=1536, out_features=10, bias=True)
    )
  )
  (noise): PatternRouterMLP(
    (distribution_fit): Sequential(
      (0): Linear(in_features=3072, out_features=1536, bias=True)
      (1): LeakyReLU(negative_slope=0.01)
      (2): Linear(in_features=1536, out_features=10, bias=True)
    )
  )
  (softplus): Softplus(beta=1.0, threshold=20.0)
)
interCycleLayers.9.experts ModuleList(
  (0-9): 10 x MLPBlock(
    (in_linear): Linear(in_features=128, out_features=256, bias=True)
    (dropout): Dropout(p=0.05, inplace=False)
    (act): ReLU()
    (out_linear): Linear(in_features=256, out_features=128, bias=True)
    (ln): LayerNorm((128,), eps=1e-05, elementwise_affine=True)
  )
)
interCycleLayers.9.experts.0 MLPBlock(
  (in_linear): Linear(in_features=128, out_features=256, bias=True)
  (dropout): Dropout(p=0.05, inplace=False)
  (act): ReLU()
  (out_linear): Linear(in_features=256, out_features=128, bias=True)
  (ln): LayerNorm((128,), eps=1e-05, elementwise_affine=True)
)
interCycleLayers.9.experts.0.in_linear Linear(in_features=128, out_features=256, bias=True)
interCycleLayers.9.experts.0.dropout Dropout(p=0.05, inplace=False)
interCycleLayers.9.experts.0.act ReLU()
interCycleLayers.9.experts.0.out_linear Linear(in_features=256, out_features=128, bias=True)
interCycleLayers.9.experts.0.ln LayerNorm((128,), eps=1e-05, elementwise_affine=True)
interCycleLayers.9.experts.1 MLPBlock(
  (in_linear): Linear(in_features=128, out_features=256, bias=True)
  (dropout): Dropout(p=0.05, inplace=False)
  (act): ReLU()
  (out_linear): Linear(in_features=256, out_features=128, bias=True)
  (ln): LayerNorm((128,), eps=1e-05, elementwise_affine=True)
)
interCycleLayers.9.experts.1.in_linear Linear(in_features=128, out_features=256, bias=True)
interCycleLayers.9.experts.1.dropout Dropout(p=0.05, inplace=False)
interCycleLayers.9.experts.1.act ReLU()
interCycleLayers.9.experts.1.out_linear Linear(in_features=256, out_features=128, bias=True)
interCycleLayers.9.experts.1.ln LayerNorm((128,), eps=1e-05, elementwise_affine=True)
interCycleLayers.9.experts.2 MLPBlock(
  (in_linear): Linear(in_features=128, out_features=256, bias=True)
  (dropout): Dropout(p=0.05, inplace=False)
  (act): ReLU()
  (out_linear): Linear(in_features=256, out_features=128, bias=True)
  (ln): LayerNorm((128,), eps=1e-05, elementwise_affine=True)
)
interCycleLayers.9.experts.2.in_linear Linear(in_features=128, out_features=256, bias=True)
interCycleLayers.9.experts.2.dropout Dropout(p=0.05, inplace=False)
interCycleLayers.9.experts.2.act ReLU()
interCycleLayers.9.experts.2.out_linear Linear(in_features=256, out_features=128, bias=True)
interCycleLayers.9.experts.2.ln LayerNorm((128,), eps=1e-05, elementwise_affine=True)
interCycleLayers.9.experts.3 MLPBlock(
  (in_linear): Linear(in_features=128, out_features=256, bias=True)
  (dropout): Dropout(p=0.05, inplace=False)
  (act): ReLU()
  (out_linear): Linear(in_features=256, out_features=128, bias=True)
  (ln): LayerNorm((128,), eps=1e-05, elementwise_affine=True)
)
interCycleLayers.9.experts.3.in_linear Linear(in_features=128, out_features=256, bias=True)
interCycleLayers.9.experts.3.dropout Dropout(p=0.05, inplace=False)
interCycleLayers.9.experts.3.act ReLU()
interCycleLayers.9.experts.3.out_linear Linear(in_features=256, out_features=128, bias=True)
interCycleLayers.9.experts.3.ln LayerNorm((128,), eps=1e-05, elementwise_affine=True)
interCycleLayers.9.experts.4 MLPBlock(
  (in_linear): Linear(in_features=128, out_features=256, bias=True)
  (dropout): Dropout(p=0.05, inplace=False)
  (act): ReLU()
  (out_linear): Linear(in_features=256, out_features=128, bias=True)
  (ln): LayerNorm((128,), eps=1e-05, elementwise_affine=True)
)
interCycleLayers.9.experts.4.in_linear Linear(in_features=128, out_features=256, bias=True)
interCycleLayers.9.experts.4.dropout Dropout(p=0.05, inplace=False)
interCycleLayers.9.experts.4.act ReLU()
interCycleLayers.9.experts.4.out_linear Linear(in_features=256, out_features=128, bias=True)
interCycleLayers.9.experts.4.ln LayerNorm((128,), eps=1e-05, elementwise_affine=True)
interCycleLayers.9.experts.5 MLPBlock(
  (in_linear): Linear(in_features=128, out_features=256, bias=True)
  (dropout): Dropout(p=0.05, inplace=False)
  (act): ReLU()
  (out_linear): Linear(in_features=256, out_features=128, bias=True)
  (ln): LayerNorm((128,), eps=1e-05, elementwise_affine=True)
)
interCycleLayers.9.experts.5.in_linear Linear(in_features=128, out_features=256, bias=True)
interCycleLayers.9.experts.5.dropout Dropout(p=0.05, inplace=False)
interCycleLayers.9.experts.5.act ReLU()
interCycleLayers.9.experts.5.out_linear Linear(in_features=256, out_features=128, bias=True)
interCycleLayers.9.experts.5.ln LayerNorm((128,), eps=1e-05, elementwise_affine=True)
interCycleLayers.9.experts.6 MLPBlock(
  (in_linear): Linear(in_features=128, out_features=256, bias=True)
  (dropout): Dropout(p=0.05, inplace=False)
  (act): ReLU()
  (out_linear): Linear(in_features=256, out_features=128, bias=True)
  (ln): LayerNorm((128,), eps=1e-05, elementwise_affine=True)
)
interCycleLayers.9.experts.6.in_linear Linear(in_features=128, out_features=256, bias=True)
interCycleLayers.9.experts.6.dropout Dropout(p=0.05, inplace=False)
interCycleLayers.9.experts.6.act ReLU()
interCycleLayers.9.experts.6.out_linear Linear(in_features=256, out_features=128, bias=True)
interCycleLayers.9.experts.6.ln LayerNorm((128,), eps=1e-05, elementwise_affine=True)
interCycleLayers.9.experts.7 MLPBlock(
  (in_linear): Linear(in_features=128, out_features=256, bias=True)
  (dropout): Dropout(p=0.05, inplace=False)
  (act): ReLU()
  (out_linear): Linear(in_features=256, out_features=128, bias=True)
  (ln): LayerNorm((128,), eps=1e-05, elementwise_affine=True)
)
interCycleLayers.9.experts.7.in_linear Linear(in_features=128, out_features=256, bias=True)
interCycleLayers.9.experts.7.dropout Dropout(p=0.05, inplace=False)
interCycleLayers.9.experts.7.act ReLU()
interCycleLayers.9.experts.7.out_linear Linear(in_features=256, out_features=128, bias=True)
interCycleLayers.9.experts.7.ln LayerNorm((128,), eps=1e-05, elementwise_affine=True)
interCycleLayers.9.experts.8 MLPBlock(
  (in_linear): Linear(in_features=128, out_features=256, bias=True)
  (dropout): Dropout(p=0.05, inplace=False)
  (act): ReLU()
  (out_linear): Linear(in_features=256, out_features=128, bias=True)
  (ln): LayerNorm((128,), eps=1e-05, elementwise_affine=True)
)
interCycleLayers.9.experts.8.in_linear Linear(in_features=128, out_features=256, bias=True)
interCycleLayers.9.experts.8.dropout Dropout(p=0.05, inplace=False)
interCycleLayers.9.experts.8.act ReLU()
interCycleLayers.9.experts.8.out_linear Linear(in_features=256, out_features=128, bias=True)
interCycleLayers.9.experts.8.ln LayerNorm((128,), eps=1e-05, elementwise_affine=True)
interCycleLayers.9.experts.9 MLPBlock(
  (in_linear): Linear(in_features=128, out_features=256, bias=True)
  (dropout): Dropout(p=0.05, inplace=False)
  (act): ReLU()
  (out_linear): Linear(in_features=256, out_features=128, bias=True)
  (ln): LayerNorm((128,), eps=1e-05, elementwise_affine=True)
)
interCycleLayers.9.experts.9.in_linear Linear(in_features=128, out_features=256, bias=True)
interCycleLayers.9.experts.9.dropout Dropout(p=0.05, inplace=False)
interCycleLayers.9.experts.9.act ReLU()
interCycleLayers.9.experts.9.out_linear Linear(in_features=256, out_features=128, bias=True)
interCycleLayers.9.experts.9.ln LayerNorm((128,), eps=1e-05, elementwise_affine=True)
interCycleLayers.9.general_experts ModuleList(
  (0): MLPBlock(
    (in_linear): Linear(in_features=128, out_features=256, bias=True)
    (dropout): Dropout(p=0.05, inplace=False)
    (act): ReLU()
    (out_linear): Linear(in_features=256, out_features=128, bias=True)
    (ln): LayerNorm((128,), eps=1e-05, elementwise_affine=True)
  )
)
interCycleLayers.9.general_experts.0 MLPBlock(
  (in_linear): Linear(in_features=128, out_features=256, bias=True)
  (dropout): Dropout(p=0.05, inplace=False)
  (act): ReLU()
  (out_linear): Linear(in_features=256, out_features=128, bias=True)
  (ln): LayerNorm((128,), eps=1e-05, elementwise_affine=True)
)
interCycleLayers.9.general_experts.0.in_linear Linear(in_features=128, out_features=256, bias=True)
interCycleLayers.9.general_experts.0.dropout Dropout(p=0.05, inplace=False)
interCycleLayers.9.general_experts.0.act ReLU()
interCycleLayers.9.general_experts.0.out_linear Linear(in_features=256, out_features=128, bias=True)
interCycleLayers.9.general_experts.0.ln LayerNorm((128,), eps=1e-05, elementwise_affine=True)
interCycleLayers.9.gate PatternRouterMLP(
  (distribution_fit): Sequential(
    (0): Linear(in_features=3072, out_features=1536, bias=True)
    (1): LeakyReLU(negative_slope=0.01)
    (2): Linear(in_features=1536, out_features=10, bias=True)
  )
)
interCycleLayers.9.gate.distribution_fit Sequential(
  (0): Linear(in_features=3072, out_features=1536, bias=True)
  (1): LeakyReLU(negative_slope=0.01)
  (2): Linear(in_features=1536, out_features=10, bias=True)
)
interCycleLayers.9.gate.distribution_fit.0 Linear(in_features=3072, out_features=1536, bias=True)
interCycleLayers.9.gate.distribution_fit.1 LeakyReLU(negative_slope=0.01)
interCycleLayers.9.gate.distribution_fit.2 Linear(in_features=1536, out_features=10, bias=True)
interCycleLayers.9.noise PatternRouterMLP(
  (distribution_fit): Sequential(
    (0): Linear(in_features=3072, out_features=1536, bias=True)
    (1): LeakyReLU(negative_slope=0.01)
    (2): Linear(in_features=1536, out_features=10, bias=True)
  )
)
interCycleLayers.9.noise.distribution_fit Sequential(
  (0): Linear(in_features=3072, out_features=1536, bias=True)
  (1): LeakyReLU(negative_slope=0.01)
  (2): Linear(in_features=1536, out_features=10, bias=True)
)
interCycleLayers.9.noise.distribution_fit.0 Linear(in_features=3072, out_features=1536, bias=True)
interCycleLayers.9.noise.distribution_fit.1 LeakyReLU(negative_slope=0.01)
interCycleLayers.9.noise.distribution_fit.2 Linear(in_features=1536, out_features=10, bias=True)
interCycleLayers.9.softplus Softplus(beta=1.0, threshold=20.0)
regression_head OutputHead(
  (projection): Sequential(
    (0): Linear(in_features=128, out_features=1, bias=True)
  )
)
regression_head.projection Sequential(
  (0): Linear(in_features=128, out_features=1, bias=True)
)
regression_head.projection.0 Linear(in_features=128, out_features=1, bias=True)
Trainable parameters are: ['flattenIntraCycleLayer.experts.0.1.weight', 'flattenIntraCycleLayer.experts.0.1.bias', 'flattenIntraCycleLayer.experts.1.1.weight', 'flattenIntraCycleLayer.experts.1.1.bias', 'flattenIntraCycleLayer.experts.2.1.weight', 'flattenIntraCycleLayer.ex
…
